checkpoint_actor.pth (torch_old, 154694 bytes, 6 tensors)

fc1.weight f4 [128, 33]
00000000: a91d 583e 82d1 313e 3b12 a23e 516f 18bc
00000010: d367 c3bd 4ab2 94bd 7d7a d13d a3cb 8ebe
00000020: 0c4d 973d 1d01 f93d 53ac 57bc f83e 67be
00000030: 4cf0 1d3e 8869 91be 51df afbe ff1e 263e
00000040: 2574 b23c 424e 6f3c 7379 a73d 6382 c23c
00000050: afd2 433e 7910 603d c5a2 743d c283 5ebc
00000060: 4389 b23d b59b cbbd a5a2 1a3e 7ffa d03d
00000070: e16e 14be c419 083e 27af 5e3d 5aa0 6ebd
00000080: 7ae6 183e 6531 e63c 4cc1 9c3e 95d8 d83d
00000090: 9a9f e6bd 53e9 44bd f9a4 eb3d cb41 363d
000000a0: 5d08 9f3c 5dad 13be 364d bd3c e1da 4ebd
000000b0: a908 89bc ae50 183c 1d61 7c3d 159d a43d
000000c0: ed0e c9bd ebaf 0b3d d71e de3c e6c9 833b
000000d0: ba8c 6a3c 29fa d43d 7eb8 023e 9f85 033d
000000e0: d1c3 c8bb 5053 d93d 325d acbc 64c3 78be
000000f0: 0a7c 3dbe 4ff2 893e 308f 4c3c 477f e8bc
00000100: 402a f1bb be60 93bf c0bf 6ebe 0706 0cbe
00000110: ce6b 2fbe ee43 ca3d e78c 3abe cab8 d63d
00000120: e23c 163e 807c d1bc 2df2 0b3c 6dae 263e
00000130: 3484 52bd 1a2c 2cbe 0b62 d83d a847 ac3e
00000140: 760f a0bc 512b 743e 51e0 96bb 9311 1c3d
00000150: 39e0 5b3d 98f8 36bd b08b 7fbd d159 aa3d
00000160: 457c a73d 21f9 ed3b d52a 953d 9083 24bd
00000170: 3ee8 57be 6930 84be e816 f4bd 3d51 acbd
00000180: 23c7 bd3d d9e6 2abe 71fd d83c 114e 8d3e
00000190: 654d 863e 36a2 94be 7492 783c 2078 c83d
000001a0: 85ba b23d bf61 43bc 4351 6a3e 3a4b 303e
000001b0: 768c 263e 312b b1bd 1f19 0b3e 6889 31bd
000001c0: 92dd 17be fb7c 9c3d 453e 6a3e 8a8e e63c
000001d0: 593e 173c 7d92 713c c5c2 20bc 7e92 b0bc
000001e0: 79d7 ca3d 511c 6abd 6099 a3bd 04cd 7fbc
000001f0: cf2a 473e 2649 b1be a5fc 0dbe dd91 70be
00000200: 651f a4bd b1c6 aa3d 3858 313e 2236 a7bf
00000210: bbd5 b3be a719 0b3d 41e8 313e 2c52 9fbd
00000220: 1989 c5bc 8892 c1bd a46a f3bc e3e9 3fbd
00000230: cd60 7d3d 49be a4bd 9672 163e 9366 903d
00000240: 8fc2 243d 83d6 663d 08e4 fe3d 5313 c2bc
00000250: b828 a13d 1166 39bc 2690 c73c 7830 c13d
00000260: 1fe9 07be 2aa3 013d 6d63 35be 70fd b53e
00000270: 6893 a7bd 0270 99bd 57e5 863e 5221 293c
00000280: 6f12 b1bd 70a1 0c3c 7af5 873b 4838 183e
00000290: dbe8 50be 0478 debe af73 7b3c 4291 313d
000002a0: a3a1 0f3e 05f7 033e 77d3 31bc 7bc2 43be
000002b0: b888 b5bd 2dd0 9abe 1bb6 94be bfa0 78bd
000002c0: 85cc c33d 3b5b d2bd 6cc0 7f3e 5a66 4fbd
000002d0: 52e7 edbd 6d2f 93bc f4a8 22bc 73dc 2b3e
000002e0: 45d7 54bb 41e8 39bd 74df d1bc a962 193d
000002f0: 81ce 24bb 432b 043e a94b a83d b82f 11bd
00000300: e006 eebd 973b c23d 648b b23d cef3 683e
00000310: 10a6 9bbd 4932 6bbe 93aa b9be 556b 4fbe
00000320: 9066 203f 565b 0dbd c112 6abe ba1e c9bd
00000330: c97b 87bc 5033 ffbd 83eb a3bd c260 0bbe
00000340: 1336 64bd ff60 9bbd a1f1 1e3e 5e01 a13d
00000350: 9086 963d b655 d1bc 9e5b 37bd 8ffa eb3c
00000360: af78 10bd 3aca a93c 7c55 fabd a32a 4cbe
00000370: b914 d8bd 998c e1bd 119b 0ebd 7bda 29bd
00000380: f9f5 013e 9b87 ab3d 9530 3cbe a088 77bc
00000390: 2a53 b5bc b728 81bd 4c34 78be 7070 8abe
000003a0: 4a81 623e 4391 80bd 81fd b3bd 7623 0c3d
000003b0: bde9 e7bb 5077 c23d 6a71 b5be 4133 e1bd
000003c0: e326 6d3e 67b0 47be b5e1 173e 4716 793d
000003d0: aae7 393e 4c5f 393e 9dd2 41be 51f2 c1bc
000003e0: edae 98bc 50c3 92ba 90e9 50bc 35ee 123e
000003f0: da08 4abe 748a f5bd be93 ecbc a094 8fbe
0.21105064 0.17365077 0.31654534 -0.009303884 -0.09541287 -0.072605684 0.10228441 -0.27889737
0.073877424 0.121584155 -0.013163644 -0.22582614 0.15423697 -0.28400826 -0.34350064 0.16222762
0.021783898 0.01460606 0.081774615 0.023743814 0.19123338 0.05470321 0.05972554 -0.013581218
0.08717587 -0.09941808 0.15101106 0.10204028 -0.14495422 0.13291079 0.054366257 -0.058258392
0.1493167 0.028099725 0.30616224 0.10588185 -0.1126091 -0.048074078 0.115060754 0.04449634
0.019413168 -0.14421602 0.023108106 -0.050501708 -0.016727762 0.009296579 0.061616052 0.080377735
-0.098173 0.034103315 0.027114315 0.004021871 0.014315778 0.10399277 0.1276569 0.032109853
-0.0061268588 0.10611594 -0.021040533 -0.24293286 -0.18504348 0.2694268 0.01248531 -0.028381003
-0.007359773 -1.1513898 -0.23315334 -0.13674174 -0.17130968 0.09876238 -0.18217812 0.104844645
0.14671662 -0.025572062 0.008541626 0.16277476 -0.05139561 -0.16813698 0.10565575 0.3364842
-0.019538622 0.23844649 -0.0046043773 0.038102698 0.053680632 -0.04467067 -0.062389076 0.08317912
0.081779994 0.0072623645 0.0728356 -0.04016453 -0.21084687 -0.25818184 -0.119184315 -0.084139325
0.09266498 -0.16689624 0.026488038 0.27598622 0.26230922 -0.29030007 0.015171636 0.09788537
0.08726982 -0.01192516 0.22882561 0.17216197 0.16264519 -0.08650816 0.13583802 -0.04334393
-0.14830616 0.07641026 0.22875316 0.02814414 0.009231173 0.014744398 -0.009812062 -0.021554228
0.099043794 -0.05715591 -0.07988238 -0.015612844 0.19449924 -0.3462612 -0.13865907 -0.23493142
-0.080138005 0.08338679 0.17318809 -1.3063395 -0.35124 0.03396001 0.17373754 -0.07779345
-0.024113225 -0.09451777 -0.029713936 -0.04685391 0.061859895 -0.080441065 0.14692149 0.070508145
0.040224608 0.056356918 0.12445837 -0.023690855 0.078690946 -0.011315838 0.024360728 0.09433073
-0.13272522 0.031649746 -0.17713709 0.3554492 -0.081824124 -0.07492067 0.26346847 0.010322886
-0.08646094 0.008583412 0.004149136 0.1486522 -0.20401327 -0.4345094 0.015347405 0.04335142
0.14026503 0.12887199 -0.01085364 -0.19117157 -0.08863968 -0.3023695 -0.29045185 -0.060700174
0.095604934 -0.10271307 0.24975747 -0.05063472 -0.116163865 -0.01796695 -0.009927977 0.16783313
-0.0032476943 -0.04538751 -0.025619246 0.037447605 -0.00251475 0.12907128 0.08217556 -0.0354459
-0.11622405 0.09484022 0.08717993 0.22749254 -0.07600033 -0.22968401 -0.3626295 -0.20255788
0.626565 -0.034510933 -0.22858717 -0.09820314 -0.016538518 -0.12460959 -0.08003905 -0.13611129
-0.05571563 -0.0758686 0.15521862 0.07861589 0.073498845 -0.025553565 -0.044765107 0.028806
-0.035271343 0.020726312 -0.12223336 -0.1993814 -0.105508275 -0.11013145 -0.03481585 -0.041468125
0.12691487 0.08375474 -0.18377908 -0.0151082575 -0.022134382 -0.06306594 -0.242387 -0.27038908
0.22119632 -0.062777065 -0.087885864 0.034213506 -0.0070774243 0.09495413 -0.3543809 -0.10996104
0.23159365 -0.19500886 0.14832194 0.06081226 0.18154779 0.18102759 -0.18927999 -0.023675116
-0.018638099 -0.0011197124 -0.012750998 0.14348681 -0.19729939 -0.119892985 -0.028879043 -0.2804308

fc1.bias f4 [128]
00000000: 291c 7dbd b611 87bc 5fc9 b63d 0469 d93d
00000010: ae64 db3b b679 2e3d 1a9b a83d b1d6 25be
00000020: 81e6 89be 024c 083e 1d7e eebd 4750 093c
00000030: d229 283d f428 0d3d 45fb 273e 3c0a e03d
00000040: b217 0fbe ef89 58bd 6759 97bd 2995 ae3d
00000050: 4107 4bbd 8f1b 8b3d ce75 43be 9290 89bd
00000060: af1c 10be 8e3d 32be 0306 063e 8723 7b3e
00000070: ba27 4c3e deb8 b1bc fe2f f83d 0906 76bd
00000080: 00ba c3bd 2529 dd3d dd19 df3d 7edd 313e
00000090: cfcc 5b3c 11de 903d e8c7 643e f6b0 95bd
000000a0: 5e90 263d a78e a3bc a784 ad3d 4941 1bbd
000000b0: a30c ebbd a32f 92bd 2b4b 6e3e 7876 f5bc
000000c0: 766d 543d 3aa1 83bd 8582 1a3e a0d5 953b
000000d0: 6e7b c53c 4f05 debd dcfc 7fbe 29b6 213e
000000e0: 3c28 f4bd 6e5a 1bbe 02c9 15be 3cb9 edbc
000000f0: 72e8 003e 4864 333e 87a5 1abe b7b2 16be
00000100: 5867 1c3e cff5 bebd 3597 b53d 1a66 32bd
00000110: b2e6 f33d 4751 cc3d 6301 5fbe 33ba 8f3e
00000120: 59bf 17bd 9487 1b3e 1fb1 f53c 89de 9b3c
00000130: 54f1 97bb a6ce d7bd 8ccd b13d 1d7b 453e
00000140: 20fb 12be 8a4d 9e3a 4e6a 19bd 2eeb 06be
00000150: ef78 13be b62d fe3d 7e18 663e e283 af3d
00000160: bb72 b8bd acb0 52be 0d88 2d3e ed0b fe3d
00000170: 3489 57bd c4a2 1e3e b805 0b3e a3f4 43be
00000180: 9333 293c a38b 11be c8f1 2f3d 52d6 c8bd
00000190: 225d be3c de65 02be 1396 5fbc 8e9f 81bd
000001a0: 58f9 583c 852a 183d 5744 20be aa36 f7bb
000001b0: fbe0 9ebb bf2f 3f3c e08a 66be b1e0 0cbe
000001c0: 969c 06be 4f89 18be 0bb7 d4bc 18d0 5c3e
000001d0: 4c03 0abd 7c05 68bd 5b33 583e b7d8 ffbc
000001e0: d841 723e 03f0 8dbd 184e 49bd 7108 8d3d
000001f0: cb61 243e d45c 2a3e f74b 063e 5384 babd
-0.061794434 -0.016487937 0.08925127 0.10615733 0.0066953516 0.04259654 0.08232708 -0.1619518
-0.26933673 0.13310245 -0.11645148 0.008380956 0.041055508 0.034462884 0.16404445 0.10939452
-0.13973883 -0.05286592 -0.07390099 0.08524544 -0.049567465 0.06792366 -0.19087908 -0.06717028
-0.14073442 -0.17406294 0.13088231 0.24525271 0.1993703 -0.021694597 0.12118529 -0.06006435
-0.09556961 0.10798863 0.10893605 0.17369649 0.013415529 0.07073606 0.22341883 -0.07309143
0.040665023 -0.019965483 0.08472567 -0.037904058 -0.1147702 -0.07137992 0.23270862 -0.029963717
0.051862203 -0.06427236 0.15088852 0.004572585 0.024106707 -0.10840856 -0.24998802 0.15792145
-0.119217366 -0.15171215 -0.1462746 -0.02901899 0.12588671 0.17518723 -0.15102206 -0.14716612
0.15273798 -0.09324228 0.08866731 -0.043554403 0.11909236 0.0997644 -0.21777873 0.28071746
-0.037047718 0.15188438 0.029991684 0.019027011 -0.004636923 -0.10537462 0.08681783 0.19285245
-0.14353609 0.0012077552 -0.037454896 -0.13175651 -0.14401601 0.124110624 0.2247028 0.085700765
-0.09006258 -0.20575207 0.1694643 0.124046184 -0.05262108 0.15491778 0.135764 -0.1913629
0.010327238 -0.14213423 0.04295519 -0.09806503 0.023237769 -0.12734172 -0.01364662 -0.06329261
0.013243042 0.037149925 -0.1565107 -0.0075443583 -0.004848597 0.011669098 -0.22513914 -0.13757588
-0.1314567 -0.14896129 -0.025966188 0.21563756 -0.03369455 -0.056645855 0.2111334 -0.031231267
0.2365793 -0.06930544 -0.04914674 0.06886376 0.1605293 0.16636974 0.13114916 -0.0910727

fc2.weight f4 [256, 128]
00000000: 422c 50be b7fb bf3e 0a23 a5bd 3f9c 203e
00000010: 3877 113e 53c5 b9bc 7ba4 85bd 31b6 4dbd
00000020: 70bd a0bd e301 b2bc 8939 cdbd e790 103d
00000030: 8752 a53d 381e bf3d daca 52be d29c 713d
00000040: 1772 0d3e 2e27 adbd c031 9f39 13de 06bd
00000050: ccfa 8bbe e112 b0bd 7658 e5bc 2e37 943b
00000060: 4497 46be 8246 50bd 466f a7bc 7ff8 0c3d
00000070: 7c0a 01bd abe6 683a c828 213e ec18 30be
00000080: 7a7e 35bd 5097 f73c 82fe 573e 4a54 30be
00000090: 6669 99bd f52e 013e 41b5 d33c 372e 7d3d
000000a0: ffbf fb3d a960 94be 4c7b c6bd 4c10 6dbd
000000b0: 4f20 1b3c 2886 9b3c 20b7 3fbe 6315 a43d
000000c0: f8ba 223e 7922 d5bc aa74 e53d d21e 673d
000000d0: f7c3 dd3d 52c4 24be 82c1 9b3e 140e dcbd
000000e0: 316a 8f3d 6f10 2a3e da0e b13d 8a5f 353e
000000f0: a21a 1cbe d87c 393e 2abb a1be 8137 d1bd
00000100: 4c5d 48be 9fb9 debc 21f0 243c 1da2 79bc
00000110: 67e6 cf3d 1d55 8ebd a401 afbd dc02 753d
00000120: 1e15 243c 65d8 413e 686a f83d 3d53 2d3c
00000130: 72f3 82bc 39f1 19be 022e 47be fe53 a3bd
00000140: 7cc3 393c 23e9 87bb e839 333d e759 afbc
00000150: 2e8e 183e 2ecf 10be 3842 d4be 5e3c 2cbd
00000160: 5a14 1a3d 8290 bc3d a7ce 4e3d ef8b 16be
00000170: a796 f4bd 934a 953d a9a6 43be e3c8 ec3d
00000180: 0caa ab3d 5711 7dbc 0bc4 83be 44a8 afbd
00000190: 3322 a9bd ebfe c43d af9c 84be a8b1 b73d
000001a0: f940 783d f094 cebd efc2 9b3d 93bf e33c
000001b0: e4b6 a5bd e2a6 533d 3fa5 a039 1e3f 8dbe
000001c0: ae50 93be 9c1d 023e f17c 053d 5d7b 16be
000001d0: 4274 e8bd 7e37 0bbe acb0 9cbd c7f2 19bb
000001e0: 6ca2 f4be c9d3 823d 7990 a83c 8f44 71bd
000001f0: 050d 053e 3cfb 013d f74c 99bd 8da9 cd3d
00000200: 88e9 293e 3da7 47be 0865 43be 6353 5ebd
00000210: 58fe 4e3b 4d27 973d 7023 983d 943d 743c
00000220: 9f6c e93d 5caf 973d a565 e23c e8f1 d3bd
00000230: 275f f8bd f3b5 30be c5e0 98bd 57e6 773d
00000240: 9810 d4bc 5ae3 863d 478e f63c b0cc 733e
00000250: 37fb 71bb 2efe 633e e9cd 25be 19b3 a0bd
00000260: 6e20 08be a8e2 e93d 1776 063d 5c15 bebc
00000270: 8fe9 8fbe 07bb 653e 02bb 3e3d d0e6 33be
00000280: b84b 81bd 16e0 01be 03c8 763c 91f7 0c3e
00000290: ca34 103d 6669 11be fae1 7dbe 0d06 7b3d
000002a0: 224a ccbd 13f6 38be 6727 41be ba1e 8e3e
000002b0: cba6 6dbe 230a 53be 0f9d a4ba 69d7 2d3d
000002c0: 2a1e d3bc bac3 4b3e cc01 0f3d 0e69 bdbd
000002d0: 9679 4cbe cb0c b0bc ae12 9bbe b70a 13bd
000002e0: 913d b53d 305a 1f3d 3c41 25bd 408d 323e
000002f0: a204 043d c96e d03d 8272 b7bd 4f5a 8ebc
00000300: a937 11be 3113 2a3e 5c0c 3b3d 9263 9cbe
00000310: eded c3be 932b bcbd e728 11be 153b bb3d
00000320: 4ca1 26bd 3a66 44bd 93cd d7bd dc9e 0bbe
00000330: 4642 70be e403 b73d d375 9d3d 4726 563e
00000340: 0e6d dd3a 81d2 5f3d 82f3 d13c d8f6 b53d
00000350: ef93 f43d 7d83 523e 78d9 793d 44e5 2e3d
00000360: 000f 053c a611 643d a561 c03d 8c70 15be
00000370: 6be9 2cbd a91b 033c 2349 30be d0f8 413e
00000380: 079d 3c3d 3cae ed3d d187 d13d 302a 4a3d
00000390: 95d9 143e d34e 063d a5a1 ea3d 701e 333e
000003a0: 7db2 7fbd cd66 003e ce87 d6bd c03f 9fbd
000003b0: 215e 683e ef69 6dbe 7860 fd3d f6fb ee3d
000003c0: a59f c6bd 6073 14ba d7fa 293d 08fb b73d
000003d0: 566f e8bd 729c 85be f9c0 0fbe c5f8 afbe
000003e0: da3c 8c3e 9b45 f5bc 3518 bb3c 3511 e83c
000003f0: dad3 aabe 583d 5dbd 661a 0f3e 312f ecbd
-0.20329383 0.3749673 -0.08063324 0.15684603 0.14205635 -0.0226771 -0.06525513 -0.05022258
-0.07848632 -0.021729415 -0.100207396 0.03529444 0.080723815 0.09331936 -0.20585194 0.058987446
0.13813053 -0.084547386 0.0003036391 -0.03292663 -0.2733978 -0.08597351 -0.027996283 0.0045231795
-0.19393641 -0.05084849 -0.020438801 0.03441667 -0.03150414 0.000888447 0.15738213 -0.17197007
-0.04431007 0.030223519 0.21093181 -0.17219654 -0.07490806 0.12615569 0.025843265 0.061811652
0.1229248 -0.28979996 -0.09691486 -0.05787687 0.009468152 0.01898487 -0.187222 0.08011892
0.15891635 -0.026017414 0.112038925 0.056425877 0.10828393 -0.16090515 0.30421072 -0.10744873
0.07002676 0.16607831 0.08645411 0.17712227 -0.15244535 0.1811403 -0.31588107 -0.10215665
-0.1956684 -0.02718812 0.010067017 -0.015236405 0.10151368 -0.06949828 -0.08545235 0.05981718
0.0100148 0.18930204 0.121296704 0.010578928 -0.015985224 -0.15033425 -0.19451144 -0.079750046
0.011338111 -0.004147665 0.043756396 -0.021405173 0.14897987 -0.14141533 -0.4145677 -0.042049758
0.037617065 0.0920725 0.050490048 -0.14701818 -0.11942797 0.072896145 -0.19106545 0.115617536
0.08382043 -0.015446029 -0.25735506 -0.08577016 -0.08258476 0.09618934 -0.2590079 0.08969432
0.060608838 -0.10087001 0.0760554 0.02780131 -0.08091524 0.051672824 0.00030640696 -0.27587217
-0.2877249 0.12706608 0.032589857 -0.14695497 -0.113502994 -0.13595387 -0.07650885 -0.0023490654
-0.47780168 0.06388051 0.020576702 -0.058903273 0.12993248 0.031733736 -0.07485383 0.10042105
0.16592991 -0.1949739 -0.19081509 -0.054278743 0.0031584706 0.07380543 0.07428634 0.0149072595
0.11397671 0.07406494 0.027636359 -0.10348874 -0.12127524 -0.17256908 -0.074647464 0.060522404
-0.025886819 0.065863326 0.03009714 0.23808551 -0.0036923417 0.2226493 -0.1619183 -0.0784666
-0.13293621 0.114201844 0.032827463 -0.023203544 -0.2810788 0.22434627 0.046565063 -0.17568517
-0.0631327 -0.12683138 0.015062335 0.13766314 0.035206594 -0.14200363 -0.24793234 0.061285067
-0.09975077 -0.1806262 -0.18862687 0.27757818 -0.23208158 -0.20609336 -0.0012559014 0.04244176
-0.02577122 0.19898883 0.034913823 -0.09248553 -0.19968256 -0.021490475 -0.3028769 -0.03589889
0.088496335 0.03890437 -0.040345415 0.17436695 0.03223098 0.101773806 -0.089573875 -0.017377047
-0.14181389 0.16608883 0.045666084 -0.30544716 -0.3826746 -0.091879986 -0.1417576 0.091421284
-0.04068117 -0.047949053 -0.10537257 -0.13634819 -0.23462781 0.08936289 0.07688489 0.20913039
0.0016893463 0.05464411 0.025628809 0.08884972 0.119422786 0.20557971 0.06099841 0.042699113
0.008121252 0.055680893 0.09393624 -0.14593714 -0.042214792 0.0080022 -0.172154 0.1894257
0.04604819 0.11605498 0.10230983 0.04935664 0.14536126 0.032790016 0.114566125 0.1749208
-0.06242608 0.12539215 -0.104751214 -0.07775831 0.22692157 -0.23184942 0.123719156 0.116691515
-0.096984185 -0.0005662944 0.041498985 0.08983427 -0.11349361 -0.2609592 -0.14038457 -0.34369484
0.27390176 -0.029940417 0.022838691 0.028328517 -0.33364755 -0.05401358 0.13974914 -0.115324385

fc2.bias f4 [256]
00000000: 8264 a5bb 19d1 0bbe 7246 f13d 89dc b1bd
00000010: 7275 053d 220e 9d3d 70cd b53d fff8 4b3a
00000020: 9159 9bbc d6b5 3cbd ec44 7eb9 8ad8 733d
00000030: 89f7 86bd 3f94 c83c e743 ddbd cb2f e93c
00000040: 2d65 c6bd 3321 f83c 6055 753d b21e afbc
00000050: 7ffd 00be 8ed0 453d 5077 adbd c887 db3d
00000060: 3275 16bd 6046 1abd b1eb 14be fe9f 38bd
00000070: 2495 633c 3e4f d53c a585 debd 6a58 a8bd
00000080: d75d b1bd 96de febc eba2 48bd f174 de3c
00000090: 9a0f f83c de75 a53d b57c 573b 2e98 4fbd
000000a0: ab8b d0bc 30fe efbc b712 ed3c 6fef c43c
000000b0: 7b1c 21be 226f 903d 0dd4 073d f8ad b4bb
000000c0: c4c9 4c3d ef77 dfbd 2b02 bebd c74b 863c
000000d0: d957 bbbc 05ca 34bd 39a5 d03d cf14 563d
000000e0: b9ea b1bc 0adb 733d 55dc 46bd a1a6 f9bc
000000f0: e100 a23d 41e8 183d 6291 aebd 988b 0bbe
00000100: d138 e9bd ce2d 87bd eded fdbb f611 113d
00000110: 7efc dd3c 756d 59bd 689f eabd 4f8a eebd
00000120: 22a0 c0bd 0b46 07be 7ae1 90bc f5d8 5bbc
00000130: de3a 9f3c 343e cebc 34df 65bd a6d7 00bd
00000140: 2f9e e5bd 09ef 1dbd 4c3e 233d e6a2 2c3d
00000150: 56d8 f7bd 62fd e23a 45c5 133c c5f7 febd
00000160: c7c4 39bd 4527 bebc ccd8 0fbc db9b e63c
00000170: 7af4 b83c 2a92 c2bd dd06 19be 377c f73d
00000180: 83fc 6bbc 2c33 03bd 6b13 ed3c b2a8 c0bd
00000190: 9009 16bd 9a57 efbb 88c1 cd3d edb2 ca3d
000001a0: 4828 04bd 4828 abbc 1b0a 81bd 0717 8a3a
000001b0: d03a 84bc 5811 76bd 29ea 573d b93c 0ebd
000001c0: eda7 13bc 37b7 113d e1ce b33d af40 bb3c
000001d0: 7e7d 86bd 1887 c13d 019c 94bc 9ca5 3bbc
000001e0: 11a5 203d 4002 833b 4abb 76bd 1d8b cbbd
000001f0: 2db9 093d 1635 bb3c b85d f7bd 6afb f03c
00000200: ddf1 7cbd f643 043d d82e aa3d 1218 dd3c
00000210: 791c 92bd 7533 10be 228b 22be 0cc0 eebc
00000220: 8452 403d da13 30ba 38aa bb3d 001b 2b3d
00000230: 7a1d 3fbd f4c4 81bd 47da 02bd 8214 0abd
00000240: dab0 5cbd 55da a93c cbbb bfbd d1f9 863c
00000250: 3aed 9cbd 488e f9bd a59a 2fbc a64e a43d
00000260: 98ba 1dbd 2374 803d 19bf 6bbd 9e76 85bc
00000270: bf94 babb 0631 c63d e62d a13d fba0 7f3d
00000280: 11d5 093d fceb 1fbd d426 23be c20c bebc
00000290: bbf3 91bd f30b 98bd fb7b 71bd 9327 83bc
000002a0: bb8d 2ebe a429 1cbd 2e7e 513d 5ffb 323d
000002b0: 2a16 37bd a094 40bd d2f2 25bd f414 05be
000002c0: b7bf 483c b5d1 eabd ab20 aebd 7ea0 b0bd
000002d0: 1dc9 5bbd 9d86 babd b425 e0bc ed5f 3ebd
000002e0: 8005 f7bd fbfe 43bc 3844 af3d 9c5c ba38
000002f0: a81f 883d e7f6 02be e06c acbd 664e b8bc
00000300: 817b 6cbc 1235 153b 46af 40bc 2861 d73c
00000310: af59 e0bd ba8b 2f3d c778 8e3d ea96 d2bd
00000320: b2d6 423d 159f 10bb 66d4 a73d 535f ddbc
00000330: 1e31 88bd de9f 493c 4752 3a3c 48f3 d93c
00000340: 5347 27be 7c60 2b39 f5fa 9fbd 1ebf 583d
00000350: 5e64 963c edc4 d5bd 5a4b de3c 0b68 3d3c
00000360: 3a78 20bd c802 98bd 92cf 0d3b 4d8a 663d
00000370: 64a3 00bd c1f9 253c 6286 643d 6ec0 57bd
00000380: 1d57 b0bc a42b 87bc 5d1f 13be 2576 78bd
00000390: 3937 3c3d a7b0 01be 2d5b 503c de83 bb3d
000003a0: eb37 45be 1aca 0a3c 929f f9bd 1113 d93c
000003b0: 6b4f c1bd 778a 23bd 7f22 043d 89e9 ad3d
000003c0: a92f 963d d97d 67bc d6e7 973c c71a 363d
000003d0: bf52 993d 588d 643d adcb 6cbd e59b 8a3d
000003e0: 27a8 cfbc 81bf acbd f426 e53c 0779 66bd
000003f0: 2ffa 25bd 65b4 3dbd c7f5 63bc 9986 4b3d
-0.005047382 -0.13653983 0.117810145 -0.08684642 0.032582708 0.07668711 0.08877075 0.0007780939
-0.018963607 -0.04607185 -0.00024249003 0.05953268 -0.06590182 0.024484752 -0.10803967 0.028465172
-0.096872665 0.030289268 0.059895873 -0.021376941 -0.12596701 0.048294596 -0.08470023 0.107192576
-0.03673286 -0.03766477 -0.14543034 -0.045074455 0.013890538 0.026038762 -0.108653344 -0.08219989
-0.08660477 -0.031111997 -0.048983496 0.027155371 0.030280877 0.08079122 0.0032880728 -0.05068224
-0.025457224 -0.02929601 0.028939588 0.024039952 -0.1573352 0.07052447 0.03316121 -0.0055139028
0.049997106 -0.109115474 -0.09277757 0.016393555 -0.022869037 -0.044137973 0.10187764 0.05226594
-0.02171837 0.059535064 -0.04854997 -0.030474963 0.07910324 0.03733087 -0.08523823 -0.1362747
-0.1138779 -0.066005334 -0.00774931 0.03541752 0.027097937 -0.053082902 -0.114561856 -0.11647474
-0.09405543 -0.13210313 -0.01768564 -0.013418426 0.01943725 -0.025176145 -0.056121066 -0.03145566
-0.11211812 -0.03855804 0.039854333 0.04214754 -0.1210181 0.0017317946 0.009019201 -0.12449602
-0.045353677 -0.023212085 -0.008779716 0.02815049 0.022577513 -0.09500535 -0.14944024 0.12084239
-0.014403465 -0.032031223 0.028939923 -0.09407176 -0.036630213 -0.007304144 0.10046679 0.09897409
-0.032264978 -0.020893231 -0.063007556 0.0010535427 -0.016141325 -0.060075134 0.052713547 -0.03472588
-0.009012205 0.035575118 0.087796934 0.022857992 -0.065669045 0.09449595 -0.018140795 -0.011453059
0.03921992 0.003998071 -0.060237207 -0.09938643 0.033623863 0.022852462 -0.12078422 0.029416759
-0.061754096 0.032291375 0.08309716 0.026989017 -0.07134337 -0.1408213 -0.15873387 -0.02914431
0.046953693 -0.00067168253 0.09163326 0.041773796 -0.04665897 -0.06336394 -0.031946447 -0.033710964
-0.053879596 0.020733992 -0.093619905 0.016476544 -0.07662435 -0.12185341 -0.0107180225 0.080228135
-0.038508028 0.06272151 -0.05755529 -0.016291913 -0.0056940014 0.09677319 0.078700826 0.062409382
0.03365046 -0.03904341 -0.1593278 -0.023199443 -0.07126566 -0.07424154 -0.058956128 -0.016010081
-0.17046253 -0.03812565 0.051145725 0.043696757 -0.04469887 -0.04701674 -0.040514775 -0.12996274
0.01225274 -0.1146578 -0.08502325 -0.086243615 -0.053658593 -0.09107707 -0.027361728 -0.0464782
-0.12061596 -0.011962648 0.085579336 8.886421e-05 0.06646663 -0.12789498 -0.08419204 -0.02249832
-0.0144337425 0.0022767228 -0.011760538 0.026291445 -0.10954606 0.042857863 0.0695663 -0.10282691
0.04756803 -0.0022067477 0.08194809 -0.027022993 -0.06649993 0.012306182 0.0113721555 0.026605263
-0.16335802 0.00016343774 -0.07811538 0.05291664 0.018358406 -0.10437951 0.02713554 0.01156045
-0.039177157 -0.074224055 0.0021638614 0.056284238 -0.03140582 0.010130347 0.05579222 -0.05267375
-0.021525914 -0.016500302 -0.14367433 -0.060659546 0.045951102 -0.12665044 0.0127170505 0.09156011
-0.19259612 0.008471036 -0.12188639 0.02649835 -0.09438976 -0.039926972 0.03225946 0.08491809
0.07333309 -0.0141291255 0.018543165 0.04445913 0.07486486 0.05579886 -0.057811428 0.06768016
-0.025348736 -0.08434964 0.027972676 -0.056267764 -0.040521797 -0.046314616 -0.013913578 0.04968891

fc3.weight f4 [4, 256]
00000000: 6793 3c3e d57e bb3d b226 debd 2f7e a4bd
00000010: 832c e63d f2df e73c dbb0 c1bc 519e 04bf
00000020: d336 f43e a0ec 693e bb7f b23b 5bda c9bd
00000030: 2ed6 7e3d f401 89bc f345 ba3e dd82 89bf
00000040: 4b5b 99be c7a6 bf3e 8ca7 00be 26da 98be
00000050: 6672 6e3f 6906 f33e 8445 ca3e 5fa0 9e3e
00000060: a261 c6bd eb0c 063e e2a4 1bbe 011a c0bb
00000070: d4f8 4dbe 08f8 01be 015d e83e 884e bf3d
00000080: 313b 663d 713f c9be 0194 bebe b5cb cc3d
00000090: fe7c 0bbe 35d1 d63d 93a3 18bd 7a06 de3e
000000a0: 2f6b 9f3e f415 683e e654 403e 53c7 093c
000000b0: 92b3 65be cb7d d1bd 634b ccbe bfa0 cf3d
000000c0: fc54 13be 4a67 b3bd fc28 ad3e 38d8 703e
000000d0: 8d45 f13e 9a8b 973e 298c acbe 4f7a ecbd
000000e0: 85d2 9e3d e3c2 8c3e c393 0c3e bc52 a8bd
000000f0: bd4f 0d3e e23f ae3e 9905 803d 7eb6 b93d
00000100: 4565 a2be cdd3 7f3c 54bd b43e 3079 5b3e
00000110: d994 cabc 7877 8bbf 6e8a 303d ef78 71be
00000120: 516d 03bd f334 933d c3fb 0d3f 5714 933d
00000130: 4b7c 5e3e fb64 803d b52f 31be fb1d 4fbe
00000140: d2c5 85be 1050 0e3e 3440 2f3e bb44 3b3e
00000150: abef ddbe d184 2dbe 3352 d6bd 5c96 abbe
00000160: 1038 d43e 5c19 70be f21b 323f 53c2 3abe
00000170: 0966 b63e b89e a13e 0f1d c33e 2510 4c3d
00000180: ebf6 873e 7747 2f3a 254e 1038 11d8 7d3d
00000190: 0480 033e 2400 8fbe b768 b7bd 5f48 833e
000001a0: 2863 e03d 0213 0f3f 2b1b 1d3d 19f9 af3d
000001b0: c76f 66be 4c98 42bd 282f 013c da83 bfbe
000001c0: eb01 e93e 2e00 353e fd13 a7bd 2ecc 983d
000001d0: aa44 1abd cd55 623e a887 29bf a574 e8bd
000001e0: 231c 1ebe f7f6 e13d 0844 02bf f8c3 ab3d
000001f0: caa0 10be aa0a a83e 6638 83bc 3276 843e
00000200: 02fd d03e f8bc f3bd b6e7 313e fc66 bd3e
00000210: 09e7 5f3e 5102 e1be 5786 c3bd 5fcf b9bd
00000220: d396 053f 17c7 0a3d 5d8e b6be 3d53 ad3c
00000230: 4a0d 3e3e e464 6b3f f1cf 8f3d 6e0d 663e
00000240: 0647 72be c461 fdbe 32d0 0c3f da89 ffbe
00000250: e50e 4e3e 3113 8cbd fb7a 8f3e c5b6 653e
00000260: d9d0 afbd 5efb 0cbb cbb6 24bf 3d52 31bf
00000270: 6310 923c 7be1 7dbe 56b4 2ebd a415 a0be
00000280: 24c0 e7bd 15ac 02bf 67b1 46be 69fa 38be
00000290: 44dd 553e 90b8 fb3d 0b93 c6be 7fe5 01be
000002a0: 1b85 f9be 7d65 91bd 480d 7bbb 3d9a be3d
000002b0: 8ba9 9c3e 643d e53e 9b54 953e c802 af3e
000002c0: 4890 3bbe 5420 5ebe 7abb 2cbe 335b 23bf
000002d0: ee87 413e 096a be3e 87cf c1bc 6768 d5bd
000002e0: 7992 5a3e e3dc a2bd 9400 043c 36e9 d33e
000002f0: f431 96be e4d9 29bf 81a8 abbe 5c39 c5be
00000300: 5ee0 a13c 454e ce3d 57ab 253e 46bd e9bd
00000310: 7767 d7be 3e69 22bd ad20 55bd d8e5 d4be
00000320: f111 74bd 8ffe 25be 5ed8 a13e e738 a1bd
00000330: a09e 013f 3426 18bf da05 243e 26fb c1be
00000340: 7b2c c7be 7513 aabd 60fd c6be 64ba 5fbc
00000350: 6988 d93c 82b9 093d 4453 163f 862c 6c3e
00000360: 4b7b 66be bf45 883e c7bf 9bbd 1130 863e
00000370: 9836 ab3e 1026 963d 12ae a7bc b5f3 cfbe
00000380: 73b1 813e cce3 38be c3c9 88be 3ffb 27bf
00000390: a792 9ebb 5632 28bf f778 54be b4bf 813e
000003a0: 2024 193f 70d1 d73e 0e7b 74be e90d 92bd
000003b0: e7a9 ddbd 2d77 93be bcc0 06be dc2f b4be
000003c0: eb89 08be 37e9 86be ef98 2ebe c3fa 2d3e
000003d0: fbe1 8dbd 916d e33e e180 1bbe 4bd6 e83e
000003e0: b230 783d 67f6 6abe ddc5 a9bd 80e3 aabd
000003f0: b670 24bd ea71 dfbc 5fe6 0e3e 48e4 233f
0.18415605 0.09155051 -0.10847224 -0.0803188 0.11238959 0.028305028 -0.023643902 -0.5180407
0.47698078 0.22844172 0.0054473556 -0.09856101 0.062215976 -0.016724564 0.36381492 -1.0743061
-0.29952464 0.3743193 -0.12563914 -0.29853934 0.9314331 0.47465828 0.3950616 0.30981728
-0.09686591 0.13090865 -0.15199617 -0.005862475 -0.20114452 -0.12692273 0.45383456 0.093411505
0.056208793 -0.39306214 -0.37222293 0.099997915 -0.136219 0.10489122 -0.03726537 0.43364316
0.31136462 0.22664624 0.18782386 0.008409339 -0.22431782 -0.10229071 -0.39901266 0.10138082
-0.14387888 -0.08759935 0.3382033 0.23519981 0.47123376 0.29598695 -0.33700684 -0.11546766
0.07754997 0.27492437 0.13728242 -0.08218905 0.13799949 0.34033114 0.06251068 0.09068011
-0.31717888 0.015614462 0.35300696 0.21432948 -0.02472918 -1.0895834 0.043100767 -0.23581289
-0.032086674 0.07187834 0.5546228 0.07181614 0.21727102 0.062692605 -0.17303355 -0.2022628
-0.26127487 0.13897729 0.17114335 0.18287937 -0.43346915 -0.16945197 -0.10464897 -0.33513153
0.41449022 -0.23447174 0.6957389 -0.18238191 0.35624722 0.31566405 0.38108107 0.049820084
0.2655557 0.00066863693 3.4405053e-05 0.061973635 0.12841803 -0.27929795 -0.0895552 0.25641152
0.109564126 0.5588838 0.038355988 0.085924335 -0.22503577 -0.047508523 0.007884778 -0.37405282
0.45509276 0.1767585 -0.08158109 0.07460819 -0.03766314 0.22103043 -0.6622262 -0.11350373
-0.15440421 0.11033433 -0.5088506 0.083869874 -0.14123836 0.32820636 -0.016018104 0.25871426
0.4081803 -0.11901277 0.17373547 0.36992633 0.21865477 -0.4394708 -0.09547108 -0.09072756
0.52183264 0.033881273 -0.3565549 0.021157855 0.18559757 0.9195082 0.070220836 0.2246606
-0.23659906 -0.49488652 0.5500518 -0.4990986 0.2012287 -0.06839598 0.28023514 0.22433002
-0.085847564 -0.0021512131 -0.6434142 -0.6926611 0.01783008 -0.24793045 -0.04265245 -0.3126651
-0.11315945 -0.51043826 -0.19403611 -0.18064274 0.20885187 0.12291062 -0.3878406 -0.12685202
-0.48734364 -0.070994355 -0.0038307477 0.09306762 0.305981 0.447734 0.2916611 0.3418181
-0.18316758 -0.2169202 -0.16868392 -0.63811034 0.1889951 0.37190273 -0.023658527 -0.10420304
0.21344937 -0.07952287 0.008056778 0.41388863 -0.29334986 -0.663481 -0.33526996 -0.38520324
0.019760307 0.100735225 0.16178642 -0.11413054 -0.42071125 -0.039651148 -0.052033115 -0.41581607
-0.059587423 -0.16210388 0.31610388 -0.078721814 0.5063267 -0.59433293 0.16017857 -0.37886924
-0.38901123 -0.083044924 -0.38865185 -0.013655279 0.026554303 0.03362418 0.58720803 0.2306386
-0.2250797 0.26615712 -0.07604938 0.26208547 0.3344009 0.073314786 -0.020468745 -0.4061562
0.25330696 -0.18055648 -0.26716432 -0.65617746 -0.0048392597 -0.65701807 -0.2074927 0.2534157
0.5982075 0.42151976 -0.23875067 -0.071315594 -0.10823422 -0.2880186 -0.1315946 -0.35192764
-0.13333862 -0.26349804 -0.17050527 0.16990189 -0.06927868 0.4441953 -0.15185882 0.45475993
0.060593314 -0.22945558 -0.082896926 -0.083441734 -0.040146552 -0.027275998 0.13955067 0.64020205

fc3.bias f4 [4]
00000000: 87b5 783d 0af5 db3c 44b1 6abd b465 283d
0.060719993 0.026850242 -0.05729796 0.041112617
