checkpoint_critic.pth (torch_old, 155706 bytes, 5 tensors)

fc1.weight f4 [128, 33]
00000000: ef80 973d 4c32 863e 1056 94bd e39f 54be
00000010: 49c2 eebe 030c aebe 2723 8bbe a1a0 283c
00000020: 19a3 74be 6f87 80bc e43b 12be 094b 0d3e
00000030: 0a21 aabd 8825 c1be bcdc a73e 8dc7 0cbc
00000040: ec09 093e 6d94 a33d 2a1f 283e 5a69 033c
00000050: 3a60 223d ce69 633d d5bd d1bb 1211 49be
00000060: fcc7 923e 1878 20bb 9d79 f63d 6974 e93e
00000070: e64a 0e3d 087c 1f3e 0313 37bf be56 053e
00000080: 2004 d3be 3513 a03d 5408 05bf 1be1 08bf
00000090: 0f69 abbc c53f 5a3c 9dbe 68bc e8b1 ac3c
000000a0: b3cd 893c 111c 2c3e 1565 093e b491 9bbc
000000b0: a834 28bc 2c2d 3e3c e46e d7bd d329 263f
000000c0: 9de6 353f 604e 1c3d ef91 99bc 10ff 54bd
000000d0: 528d fcbb 3d98 fabb c40f 0b3b e5b7 263c
000000e0: 27ee bbbb 491c 883d dd21 883c 8135 ab3d
000000f0: 3b84 d73d 61d8 c9be a04e 26be 9c2d 223e
00000100: dc9e 4d3d 2305 023e 022a f43e b91f aa3e
00000110: 954f 10bd df92 9c38 2d76 a03d 94f2 bdbc
00000120: 326a 203e b5ab 82ba 6a4d 1c3e ebe3 733d
00000130: acaf 613d 2e57 bebc 62ac 2ebd c30e 1dbf
00000140: fc00 f3be 6362 e93b e53e 363c b998 a7ba
00000150: 93e5 3a3d 2db5 3bbc e864 193d e903 be3b
00000160: e959 3b3d 3d9a cebd 7637 efbd d090 913c
00000170: 33e8 a63e 6d43 5f3e 3e6e 353d c08c 84bc
00000180: 3a86 dbbe c397 08be 4df5 79be b987 eb3e
00000190: b418 063e 5ddb b23d 9e4d 9ebc 81c4 dcbd
000001a0: cad3 08bd 0f41 3d3b 84f8 cfbb 4f99 a0bd
000001b0: 947f 77bd 7033 093d 4b57 eb3c e121 d13c
000001c0: c153 f5be 9398 02bd 62fb 653d 083f 3f3d
000001d0: 71e0 87bc 9bb1 0ebd f256 573d 49b4 3ebc
000001e0: 2c35 aa3d 8bfc 9abc b52f 7abe c29b 1ebd
000001f0: 1e2a 383d d2f1 4d3e 0c12 173f bd31 89be
00000200: 365c 7ebd 2fd5 2fbf 5e45 bebd 6eb0 cebf
00000210: a462 a3be c729 9d3e 5995 fcbd d39a 8f3c
00000220: d8d6 df3c 911b 023d 20b5 1f3e 951b 28bd
00000230: 676d 68be 465a 903b ab0f 75bd cc1f 643b
00000240: 0c36 d33c 3c1c b53e e039 2ebe 30e9 313e
00000250: f1d8 0fbc e60c 083d 99e6 7cbc 96af 0ebd
00000260: f608 ccbc acbe 17be 40ea f73c 01a0 7e3e
00000270: 8b85 a5bd 9d79 e03c b5b8 27be 9e3a 163f
00000280: 752e 9fbe 1c83 303e 6bcf f0be 8fdc 9bbd
00000290: 2271 b63f 5199 8bbe 1fa9 6c3e 1d69 543e
000002a0: cfbe c7be fa20 e2be 6063 6cbe dcba 623e
000002b0: c140 9f3c 1d50 133d 2535 adbe b5dc 0ebe
000002c0: 123c 923b 9b73 8e3d 82ba d53d a4d0 02be
000002d0: 13f0 9abe 59e8 233c e2ea fdbd 3721 123e
000002e0: ae97 91bd 9b80 84bb 5504 54bb 46dd 69bc
000002f0: fe06 ddbc f849 2d3d 7b38 22bd 26f0 0ebe
00000300: ac59 163f 67f5 5b3e bc21 6dbd 99ca f5be
00000310: 6aa6 54bd 8be7 773f de42 61be 3474 123e
00000320: 8f32 ac3e 2612 c4bd 4200 25bc adc0 a53c
00000330: d5e6 0d3d d881 c0bc 74d7 28be a23a 193d
00000340: e0b2 df3c 2d76 df3b daa5 acbc 73bf 933e
00000350: f82e 68bd 48bb 05bf 8d40 d5bc b45d 7b3c
00000360: 6829 93bc a841 68bd 188f 3ebc 6b54 2a3d
00000370: aa05 e6ba b49f f53c 3f67 7bbb b17b 4cbe
00000380: 538d ec3d c36a 683f 325b c63e bc30 bdbd
00000390: 64db 13bf 7ef3 213e 44e7 d1bf 4664 aebd
000003a0: 1b98 873e 0921 103c 1a7c 633d 1a00 92bd
000003b0: 850f 283c 082d f0bb e0fa 06bd 1fcf c4bd
000003c0: 4815 6cbd 0f88 8ebd b467 a3bb a2b0 35bd
000003d0: a57b a33e d1a3 31be d648 f43c 9ac7 d1bb
000003e0: caf6 873c bc33 b4bc 47c4 1bbd fa63 f4bc
000003f0: 0662 663d ceac 433e ba28 333e 09ce f53c
0.07397639 0.26210248 -0.072429776 -0.20764117 -0.46632603 -0.3399354 -0.27175257 0.010292203
-0.23890342 -0.01568958 -0.14280659 0.13798155 -0.08307083 -0.37723947 0.32785594 -0.0085924985
0.13382691 0.07987294 0.16418138 0.008020723 0.03964255 0.055520825 -0.0064008036 -0.19635418
0.286682 -0.0024485644 0.12034915 0.45596626 0.034739397 0.15574658 -0.71513385 0.13021371
-0.41214085 0.078161635 -0.5196583 -0.53468484 -0.02092412 0.013320868 -0.014205602 0.021080926
0.016821718 0.16807581 0.13417466 -0.018990375 -0.0102664605 0.0116074495 -0.105191976 0.6490757
0.7105501 0.03816068 -0.018746344 -0.05200106 -0.0077072764 -0.0076475427 0.0021219114 0.01017568
-0.005735177 0.0664602 0.01661771 0.083598144 0.10523268 -0.39422897 -0.1624093 0.15837711
0.05020033 0.12697272 0.476883 0.33227327 -0.035232145 7.4660165e-05 0.0783504 -0.02318696
0.1566551 -0.0009969386 0.15263906 0.05954353 0.055099174 -0.02323493 -0.042644866 -0.6135065
-0.4746169 0.0071223243 0.011123394 -0.0012786604 0.045629095 -0.01145677 0.037449747 0.005798806
0.045740042 -0.10088012 -0.116805 0.017769247 0.3259903 0.21803065 0.04429459 -0.016180396
-0.42875844 -0.13339143 -0.24409981 0.46001986 0.13095361 0.087332465 -0.01932412 -0.10779668
-0.033405103 0.002887789 -0.006346764 -0.07841741 -0.060424402 0.03349632 0.028728148 0.02552885
-0.47915462 -0.031883787 0.05614794 0.04669097 -0.016586514 -0.034837347 0.052573152 -0.011639663
0.08310923 -0.01891925 -0.24432261 -0.03872276 0.04496204 0.20111778 0.5901191 -0.2679576
-0.062099658 -0.6868467 -0.092905745 -1.6147592 -0.31911194 0.30695936 -0.12333173 0.01752988
0.027324125 0.03176457 0.15596437 -0.04104193 -0.22697984 0.0044052927 -0.059829395 0.0034808991
0.025782607 0.35373104 -0.17014265 0.1737411 -0.00877975 0.033215426 -0.015435838 -0.03483542
-0.024906617 -0.1481883 0.030263066 0.24865724 -0.08082112 0.02740174 -0.16379054 0.5868319
-0.3109013 0.17237514 -0.47033247 -0.076104276 1.4253275 -0.2726541 0.2311139 0.20743223
-0.39012763 -0.44165784 -0.23084784 0.22141594 0.019440057 0.035965074 -0.3382961 -0.1395138
0.0044627273 0.06955644 0.10435964 -0.12774903 -0.30261287 0.0100041265 -0.12398316 0.14270483
-0.07109009 -0.0040436513 -0.0032351215 -0.014273947 -0.026980873 0.04230687 -0.039604645 -0.13958797
0.5873058 0.21480332 -0.0578935 -0.48006132 -0.051916517 0.9683768 -0.21998164 0.1430214
0.33632323 -0.09573774 -0.010070862 0.020233477 0.034643967 -0.023499414 -0.16488439 0.037409432
0.027306974 0.0068195076 -0.021075178 0.28857002 -0.056685418 -0.52238894 -0.026031757 0.015342165
-0.01796408 -0.05670324 -0.011630796 0.041584413 -0.0017549295 0.029983379 -0.00383611 -0.1996906
0.11550393 0.90787905 0.38741452 -0.09237811 -0.5775664 0.15815541 -1.6398702 -0.085152194
0.26483235 0.008796939 0.055538274 -0.071289256 0.010257606 -0.007329587 -0.032954097 -0.09609818
-0.057637483 -0.06959545 -0.0049867276 -0.044357903 0.3193027 -0.17347647 0.029819887 -0.006401968
0.01659717 -0.021997325 -0.03802898 -0.029832829 0.056245826 0.19108889 0.17496005 0.030005472

fc1.bias f4 [128]
00000000: 612c e9be e2c4 97bd 8f8c b3be b243 d5be
00000010: 4907 0abf bb61 00bf eeed 22bf 0c15 82be
00000020: 6f1a 59bd d086 d0be 0560 adbe 9acd 24bf
00000030: 58f3 3ebe b7bd 7cbe 0072 4cbe 5651 20bf
00000040: 2a16 3a3e 0665 7b3d 3547 f6be 5a15 98be
00000050: de7e 00bf 53c7 e1be a8a6 dfbe 3504 5bbf
00000060: a208 4bbe a825 24be 1c0d 11bf 4cf7 0dbf
00000070: 96c5 34bf b367 2dbf 3cd5 a4be 5bcf 19bf
00000080: 5f7e 9abe c790 a9be 7097 cbbe d53e 13bf
00000090: ff4d 9fbe 0bb5 72be f415 e3be a14e 17be
000000a0: 0026 d8bc 2fb7 0cbf 86d9 02bf 82aa c2be
000000b0: 88c1 56be 1314 71be 0e92 ffbe a9d0 23bf
000000c0: 91ab 8bbe 5fa6 46bf 4d90 74be 37b0 803e
000000d0: 71e0 06be 29b3 a4be a9a4 43be f9dd 48bf
000000e0: e646 d5be 7e89 91be 5519 8bbe 845f 12bf
000000f0: d265 5abf fad2 00bf e261 51be 28bc a9bd
00000100: 051c 82bd 95ec ecbd 774d 90be daab 22bf
00000110: c465 b5be b006 dfbe 2bda 85be a60e 66bf
00000120: 56c7 c9be a504 aabe 1363 2cbf ebc6 93be
00000130: 167e a8be b05a 12bf 9b35 22bf 857a bdbe
00000140: 8053 313c 172c 1cbe f9dc ffbe e35f ffbe
00000150: bcb6 66bf 4ed5 fdbe 65bd 04bf 14ef debe
00000160: c9b0 b9be 4948 4ebe 4e26 e3be fceb 09bf
00000170: 81c6 d4bd d216 a5be dde3 233e 7da0 25bf
00000180: d2e6 03bf e022 51bd ab17 26bf 323f d0bc
00000190: 55e6 c2be 2188 cabe 6333 18bf 3dbb c8be
000001a0: d59f 05be a998 29bf bddb 5fbe 2623 1bbf
000001b0: 7ee2 c1be 9076 233e 3e3f 07bf e68e d2be
000001c0: 09dc 08bf 5c1d 2bbf 3c76 abbe b2d4 51bd
000001d0: e6ad 443e 76de f9be 4717 20bf 6b87 f53d
000001e0: cc7e 44be 74d4 3abe e46e 85be 9bc6 0bbf
000001f0: acb0 05bf ac96 50bf 0d57 61be 2f4d 7bbe
-0.4554167 -0.07410599 -0.35068175 -0.4165321 -0.53917366 -0.50149125 -0.636443 -0.25406682
-0.053003725 -0.40727854 -0.3386232 -0.64376223 -0.18647516 -0.24681745 -0.19965363 -0.6262411
0.18172517 0.06137564 -0.48101202 -0.2970379 -0.50193584 -0.44097385 -0.43681836 -0.85553294
-0.19827512 -0.1602999 -0.5666063 -0.5545547 -0.7061399 -0.6773636 -0.32193935 -0.60082024
-0.30174538 -0.3311827 -0.39763975 -0.5751775 -0.31114194 -0.23701875 -0.44352686 -0.14776088
-0.026385307 -0.54967016 -0.51113164 -0.38020712 -0.20972264 -0.23542814 -0.49916118 -0.63990265
-0.27279332 -0.7759761 -0.23883171 0.2513444 -0.13171555 -0.32167938 -0.19105782 -0.78463703
-0.41655654 -0.2842521 -0.27167764 -0.57176995 -0.85311615 -0.50321925 -0.20447496 -0.08287841
-0.063530006 -0.11568562 -0.281841 -0.63543475 -0.35429204 -0.4355979 -0.2614301 -0.898661
-0.39409894 -0.33206668 -0.67338675 -0.288627 -0.32908696 -0.5716963 -0.63363045 -0.37007537
0.010823131 -0.15251194 -0.49973276 -0.49877843 -0.9012258 -0.495768 -0.51851493 -0.43541777
-0.3626769 -0.20144762 -0.44365162 -0.5387571 -0.10389424 -0.32243973 0.16004892 -0.6469801
-0.5152408 -0.05105865 -0.64879864 -0.025420759 -0.38066354 -0.39556983 -0.5945341 -0.3920535
-0.13049252 -0.66248566 -0.21861167 -0.6060051 -0.37868112 0.15963197 -0.52830875 -0.41124648
-0.53460747 -0.66841674 -0.33488643 -0.051228233 0.19206962 -0.48802537 -0.6253552 0.119887196
-0.19188994 -0.18245107 -0.26061165 -0.5459992 -0.52222705 -0.8147991 -0.22005863 -0.24541162

fc2.weight f4 [256, 132]
00000000: 45bf 05bf ad1b 633e a828 d5bd c923 c23e
00000010: 26d0 aebe 72c6 bcbe 33df 403e 8e89 86be
00000020: 218f 6b3e d30e 7d3d eb59 0bbf 9b4e 71be
00000030: fb98 013e de5d e2bd cba2 6d3e 1008 65bc
00000040: 5625 a7bd 7ea2 3d3d c109 1cbf 67ce fdbe
00000050: 48a4 1cbf 85bb 203d 01ac 85be ea72 edbd
00000060: 6524 543d a8ff 85bc 2fe5 12bf aff2 e43d
00000070: b360 05bd 2d69 e53d d321 91be 24c7 d4bc
00000080: ea60 19be 15e7 743c 2830 583e 185d 7ebe
00000090: 1897 c5be c7c6 f93c 5b04 8dbe e747 ddbd
000000a0: 067d d8be 0479 3fbe abad 1dbe b09c 3c3d
000000b0: 82e8 4b3d 7c44 3e3b 7544 61bd 34d8 133d
000000c0: b32d dfbe 6676 bcbd 38b0 8ebe 5487 bd3b
000000d0: 93a7 12bd fd7e 32bf b910 63bd 3b80 123e
000000e0: e605 29be 2bd0 d83d 918a b6bc 2367 abbd
000000f0: 01b3 34be fe1d 8f3c 0799 3bbe c915 223d
00000100: 3f76 afbd 03e6 febe bb44 073d be12 c2be
00000110: 2791 2cbd 969c 933d 9569 1cbe 1901 323e
00000120: edcc f83d f83a 503b d616 643c d950 df3c
00000130: 200a 6ebf 1551 0f3f a1df 933e 8d7f aebe
00000140: ee1f 663e 49af 31be b929 4c3e 3e4a 1cbf
00000150: 6ad0 c2be 51ee c4b9 edaf 343e 7868 55bd
00000160: 9a50 a3be eb9b f63d 1015 7bbe c368 99bd
00000170: 835c a3bc ff7c 00bd 1695 6cbc bcb7 42be
00000180: 5219 61be 290c 2cbe 56c3 dfbe 36f8 d1bd
00000190: f21d 383e 4421 353e 24e4 f4bd 3c43 1ebd
000001a0: 445c 573d 2e4f 043e 5ed1 643d 1f32 3f3b
000001b0: e411 abbe ebeb babd 5941 afbd 291e 6a3d
000001c0: a1b6 d13e 7bab a1bd 3110 8d3d a0af 7c3e
000001d0: 9163 6fbe f316 dabe 8d01 bebe c689 99bd
000001e0: ba14 44be 2841 893c 3a09 2a3e 8b8d 53be
000001f0: 43fa 223e 82f0 9d3e df0c 223e 9e00 2b3d
00000200: 33cd 533c 7450 48bd e5b4 873d 5b37 80be
00000210: 6bf4 29be fba4 9cbd 15b1 1e3e f74f fabc
00000220: bb1f 00be 3c26 16bc ac32 84be b505 b3bd
00000230: 6f39 c1bd 1a02 55bd e627 acbe 201f 2cbe
00000240: 0095 d63b fd82 8dbe 8b16 9cbe 12e1 cf3c
00000250: 5994 d9bd 53e9 2cbd 16b7 3b3e acb9 a8bd
00000260: def2 04bf 758f 473c cee3 7ebd f78c 53bd
00000270: 977f 82bd 6548 ec3d 7aa9 673e a2e6 89bc
00000280: 6dbe 91be 0d5d a7be c00d b2be f046 ab3d
00000290: 9df8 403d 384a 293e eb4c b8be f263 84bc
000002a0: e816 bd3d 407c 933d 41cd 97be 7694 9a3d
000002b0: 7a22 873d 2a7e 753e a0f1 c0bd 2c1e d93e
000002c0: c5c6 ff3d 638b 8cbd ccb6 dc3c d292 cc3d
000002d0: cc12 95bd 94c5 14bf 9f21 15be 7088 75bd
000002e0: 9bd7 bebd 64d0 31be d983 f63d cdf3 6abe
000002f0: f060 dabd e9e1 3c3e 5684 33bd 26a1 0ebe
00000300: cc35 2dbe 581b ae3c 76a7 64bd 2fe0 9ebb
00000310: 5739 143e 035b 02be f6e8 98be 0f5e 133d
00000320: 0e03 84bd a20c b03c 0588 2c3e b915 513b
00000330: db27 6bbd 1613 a53c 6969 603d c023 f53c
00000340: b2c2 d8be bec0 04bf 7bcf ddbe ab40 08bf
00000350: c6de d8bd 802b 043e 3944 bcbe b6c9 b23d
00000360: 594c 0abf f43c 27be 85bc a1be 707f 383d
00000370: 02be 853c 32bf d3be f0ee 993d d46c 233d
00000380: 0756 fa3d 135d e43d 5604 89bc a9eb afbe
00000390: 083e e2bd 46dd 1fbc 7427 293e 303e 1dbc
000003a0: 210c 17be 4eda 1c3e e35d 0e3c 276b fc3d
000003b0: 9f09 6fbe 8410 173c cf02 b7bd 3888 853e
000003c0: 0a66 5d3e e93d 63bd 761f 87bd 33cd 99be
000003d0: 9e2e b9bd 2be6 e53d 0072 2f3e 040a a2be
000003e0: b143 583e 2037 a9bd 38de aabe ff3a 26bc
000003f0: f277 78bd a06d 2b3e 461b 633e 9173 58be
-0.5224498 0.22178526 -0.10408145 0.37917927 -0.3414318 -0.36870152 0.18835144 -0.2627682
0.23003818 0.061781716 -0.5443408 -0.23565142 0.12656014 -0.1105306 0.23206632 -0.013978973
-0.08161418 0.046297543 -0.60952383 -0.49571535 -0.61188173 0.039241333 -0.2610779 -0.11594184
0.05179252 -0.016357258 -0.57380956 0.11179101 -0.032562923 0.11201701 -0.28346118 -0.025973864
-0.14978376 0.014947672 0.2111212 -0.248402 -0.38591838 0.030490292 -0.27542385 -0.1080473
-0.42282885 -0.18698508 -0.1539828 0.046047866 0.049782284 0.002903252 -0.054996926 0.03609486
-0.43589553 -0.0920227 -0.2786882 0.0057839546 -0.035804342 -0.6972502 -0.05543587 0.14306729
-0.16506156 0.1058658 -0.02228287 -0.08369281 -0.1764641 0.017470356 -0.18320094 0.039571557
-0.085674755 -0.4978486 0.03302453 -0.37904924 -0.042130616 0.07207601 -0.15274651 0.17383231
0.121484615 0.003177343 0.01392146 0.02726023 -0.929842 0.55983096 0.28881553 -0.3408169
0.22473118 -0.17352022 0.19937791 -0.61050785 -0.38049632 -0.00037561593 0.17645235 -0.052101582
-0.31897432 0.12041458 -0.24519753 -0.07490685 -0.019941574 -0.031369206 -0.014439842 -0.19015402
-0.21982315 -0.16801514 -0.43703717 -0.102524206 0.17980173 0.17688471 -0.11957577 -0.03863834
0.052578226 0.1292083 0.05586373 0.0029174162 -0.33412087 -0.09127029 -0.08557386 0.05715767
0.40959647 -0.078940354 0.06887854 0.2467637 -0.23377825 -0.42595634 -0.37110558 -0.07496981
-0.19148532 0.016754702 0.16605082 -0.20659463 0.1591578 0.30847555 0.15825222 0.041748635
0.012927341 -0.04890485 0.066263 -0.25042233 -0.16597144 -0.07648655 0.15497239 -0.030555708
-0.12512104 -0.009164389 -0.2581991 -0.08741323 -0.09434783 -0.052003957 -0.3362419 -0.16808748
0.006548524 -0.27639 -0.3048595 0.025375877 -0.10623998 -0.042214703 0.1833156 -0.08238539
-0.51933086 0.012180199 -0.06222897 -0.051648106 -0.06371992 0.11537246 0.22623244 -0.016833607
-0.28465596 -0.3268818 -0.34776115 0.0836314 0.047112096 0.16532218 -0.35996184 -0.016160939
0.09232885 0.07201433 -0.29648784 0.07547848 0.06598373 0.23973909 -0.09421086 0.42405832
0.12489084 -0.068625234 0.026942633 0.09988941 -0.07278976 -0.5811398 -0.14563607 -0.05994457
-0.09318467 -0.17364651 0.12036867 -0.22944565 -0.106630206 0.18445553 -0.043827377 -0.13928661
-0.16915053 0.021253273 -0.055823766 -0.004848502 0.14474998 -0.1273003 -0.29865235 0.035978373
-0.06445895 0.021490399 0.16848762 0.0031903817 -0.057411056 0.020150702 0.054788027 0.029924273
-0.4233604 -0.518566 -0.43322358 -0.53223675 -0.10589366 0.12907219 -0.367708 0.087298796
-0.5402275 -0.16331846 -0.3158914 0.04504341 0.016325954 -0.41356808 0.07516277 0.03989871
0.1222344 0.11150565 -0.0167257 -0.34359482 -0.11046988 -0.009757346 0.16518956 -0.009597346
-0.1475072 0.15317652 0.0086893765 0.12325125 -0.23343514 0.009220246 -0.089360826 0.2608049
0.21620956 -0.055478964 -0.065977976 -0.30039367 -0.09042095 0.11225542 0.17133331 -0.31648266
0.21119572 -0.082624674 -0.33372664 -0.010145902 -0.060661264 0.16741037 0.22178373 -0.21137835

fc2.bias f4 [256]
00000000: 863b 443e 709a d63e 41f5 023e 8f8f 14be
00000010: 23bf 183f e43d d3be 3283 3f3e 1b10 c2ba
00000020: f8bb 743d 935f 51be a1b0 2bbe 1d42 773e
00000030: 0a32 f3bd 7708 9f3e 195d f3be d13f f7be
00000040: 5aac 15be 3635 e7bc bc33 2abe 075a e33e
00000050: dc99 793d 829b a13d 4fd3 983d 25f0 b23d
00000060: 649b f2bd 66c0 86be 693d f93d dd48 8dbe
00000070: 7af5 a3be cdcb ca3e 00fa f8bd 80c2 8a3e
00000080: 263c b8be 1562 bebe 551c b8be d417 9fbe
00000090: 6610 63be 7028 38be 7f71 11bf 2e36 62be
000000a0: 9967 f33e 4de1 64be 74ee 00bf 2b34 6f3d
000000b0: 4546 28be 2cc3 d3be 5fa4 0a3e 9b02 debe
000000c0: b50a 743e 35aa 313d cb99 c6be 6826 02bf
000000d0: ef64 b6be f416 eabd 9c87 03bf af08 0fbf
000000e0: d63e 053e 1fb0 f9bc 1b14 4b3e 9e18 94be
000000f0: 3a8b 933d 779b c23c c3c0 f93d 5e4d 863e
00000100: 0b25 ed3d 3099 76bc c92c 1c3e cbac 4c3d
00000110: ccf1 2ebe 8f55 17bf c977 e2be b473 f4be
00000120: 427e 72be e26e 98bc 199b cbbd 1b42 6cbd
00000130: 10de 0cbe 813c e1be 8b68 b2be c571 4dbe
00000140: 435a b33e 4321 01bf 2c55 783e 82c7 db3e
00000150: cc80 0c3d d9f5 0fbf 1200 e6bd 67c8 ee3d
00000160: d9bb 35be 7275 523f 2281 b9be 6b45 afbe
00000170: d26d 29be 3fcc 483d 80e7 0b3e da1d 03bf
00000180: b1ac 1c3e bc12 44be c842 1e3d 0780 78be
00000190: a0aa 80be d962 b8be 2d99 c0be 8d2c a1be
000001a0: c1ab 81be 7df4 46be 3bfc 913e cc85 2abe
000001b0: 93e4 2f3f 91b0 ddbd e560 0f3e 046c 373e
000001c0: fd7d 21be a2b0 f4be b2c5 22be a3e8 f43e
000001d0: 2d4e 103f 9785 eebd 6a0d b6bd 6ac0 5c3e
000001e0: 660d e23d d3a7 0cbf 232f cabd f548 7cbe
000001f0: d4b2 6abe 717e c4be 2add a63d 0dd6 893e
00000200: b7c6 d0bd 9357 863c 0206 423e b8cb a93d
00000210: 7178 89be 3ce0 483f ed94 13bd 90d8 75ba
00000220: 1c33 c5be 26bf e7be 7b24 3dbd 6605 67be
00000230: af76 bfbe 0d74 b43d 3679 b23e b774 d1be
00000240: 573d 76be aba1 73be 64de ff3d 4986 18be
00000250: b5ec 05bf d980 19bf 7e88 dd3d dbb4 483b
00000260: e520 dabe 3378 72be ef77 b8be 8d17 76be
00000270: f6af 7cbd f594 b1be 4168 9bbe 3d7e 873d
00000280: 0124 e3be 54e1 48bc fe51 edbd 679b c63c
00000290: d333 33bd 1674 2ebd cc30 03be 932f cbbe
000002a0: 926f 6f3e 301f 85be 5113 a5be f137 403f
000002b0: 9201 0f3f f339 10be 7af3 f43d 554a 9f3e
000002c0: 1093 05bf 04bd 7cbe 475b 02bf def0 3fbe
000002d0: 498a e8bd a2e2 ffbd b010 403f e2f4 6bbd
000002e0: a4b5 85be f943 543c 8af9 a13d 5275 163e
000002f0: 9f13 abbe e58b 3f3e 044e 9dbd 8e0b 00be
00000300: 153d 033f 7100 1e3f e972 833e 04a3 f9be
00000310: 4ea1 9d3e f814 6ebe 6fcb e6bd 7514 0e3d
00000320: 6795 033e 3eaa 44bf 8a18 a8be 1976 fb3e
00000330: d3da 9fbe b4b8 8a3e da8c 0ebf 6360 32bf
00000340: b8cc 8ebd 948d 43bf b64f e03d f82e babd
00000350: 8e49 b9be 73de a3bc ec55 2a3f 628d a63e
00000360: fb42 adbe 0444 633d 2bbd 673c 5dc3 dabd
00000370: 0f47 bbbe 3af0 b3be 1821 373f f80e 363e
00000380: db27 02be d752 e0bd de12 a03c 2223 b5be
00000390: dd67 b4be 04ab 2e3c abe3 b7be 6878 10bf
000003a0: be95 b3be 2a79 44bd d36e 8abe 17e2 dd3e
000003b0: 8c70 803e ddb3 24be 1d5a bb3e 6e7b 3f3e
000003c0: d246 be3e d7a5 cb3b 662e c8bd ffa6 363e
000003d0: 6fc7 ccbd a658 5b3f 6708 07bf 6bce fbbe
000003e0: 6fed 033f 391e 03be 8202 dbbe 97d2 fabc
000003f0: 4776 e3be cbfd 81be 832f b5be e0c9 8b3e
0.19163331 0.419147 0.1278887 -0.14507888 0.5966665 -0.41258156 0.18702391 -0.0014805825
0.059749573 -0.20446615 -0.16766597 0.24146314 -0.118747786 0.31061146 -0.47531965 -0.48290876
-0.14616528 -0.028223615 -0.16621298 0.44404623 0.060937747 0.07890989 0.07462179 0.0873721
-0.11846045 -0.26318663 0.12169916 -0.27594653 -0.3202322 0.39608613 -0.12157059 0.27101517
-0.3598339 -0.37184206 -0.35959116 -0.31072867 -0.22174224 -0.17984176 -0.56813806 -0.2209098
0.47539976 -0.2235157 -0.5036385 0.05839936 -0.16433056 -0.41359842 0.13539265 -0.43361363
0.2383221 0.043375213 -0.3878921 -0.50839853 -0.3562388 -0.11430159 -0.513788 -0.55872625
0.13012251 -0.030479489 0.19831888 -0.2892503 0.0720429 0.023755772 0.121949695 0.262309
0.11579331 -0.015051171 0.15251459 0.049969476 -0.17084426 -0.5911493 -0.44232014 -0.47744524
-0.23680976 -0.01860756 -0.09941692 -0.05768023 -0.13756585 -0.43991473 -0.34845385 -0.20062931
0.35029802 -0.5044138 0.2425124 0.4292565 0.034302518 -0.5623451 -0.11230482 0.116593175
-0.1774744 0.8221046 -0.36231333 -0.3423265 -0.165458 0.04902291 0.13662529 -0.51217425
0.15300252 -0.19147772 0.038637906 -0.24267589 -0.25130177 -0.36012915 -0.37616864 -0.31479302
-0.2532635 -0.19429202 0.2851275 -0.16652602 0.6870815 -0.10824693 0.14001806 0.17912298
-0.15770717 -0.4779101 -0.15895727 0.47833738 0.56369287 -0.11646574 -0.08889277 0.21557775
0.11037712 -0.5494358 -0.09872272 -0.24637206 -0.2291978 -0.38377717 0.081476524 0.2692112
-0.10194152 0.01639918 0.18947604 0.082908094 -0.26849702 0.78467155 -0.0360307 -0.00093782786
-0.38515556 -0.45263022 -0.04617737 -0.22560653 -0.37395236 0.088111974 0.34858102 -0.4090936
-0.24046837 -0.2379214 0.124935895 -0.14894976 -0.5231431 -0.5996223 0.108170494 0.0030625376
-0.42603222 -0.23678665 -0.36029002 -0.24032421 -0.061691247 -0.34683958 -0.30352977 0.06615875
-0.44363406 -0.012260754 -0.115879044 0.024244023 -0.043750595 -0.042591177 -0.12811583 -0.39684734
0.23382404 -0.26000357 -0.322413 0.7508536 0.5586177 -0.14084606 0.11960502 0.31111398
-0.52177525 -0.24681479 -0.5092053 -0.18744227 -0.11354501 -0.12494399 0.75025463 -0.057606585
-0.26115143 0.012955659 0.07908924 0.14693192 -0.33413407 0.1870571 -0.07680896 -0.12504408
0.5126508 0.61719424 0.25673607 -0.48757184 0.30787128 -0.23250186 -0.11269271 0.034687478
0.12849961 -0.7682227 -0.32831222 0.4911354 -0.31221637 0.27094042 -0.5568367 -0.69678324
-0.06972641 -0.76387906 0.10952704 -0.0909099 -0.3618893 -0.020003533 0.66537356 0.32529742
-0.33840165 0.055484787 0.014144222 -0.10681794 -0.3657765 -0.35144216 0.7153487 0.17779148
-0.12710516 -0.109533004 0.019540247 -0.35378367 -0.3523549 0.0106608905 -0.35915884 -0.56433725
-0.35075182 -0.047967114 -0.27037677 0.43336555 0.25085866 -0.16084237 0.36592188 0.18699428
0.37163407 0.006214838 -0.09774475 0.17837141 -0.099989764 0.8568214 -0.52747196 -0.49180922
0.5153417 -0.12804498 -0.4277535 -0.030617995 -0.44426176 -0.2538894 -0.3538781 0.27302456

fc3.weight f4 [1, 256]
00000000: 8893 5e3c f500 6c3c 9b2d 643c bfa9 f43c
00000010: 91b9 773c 08ba 3bbc 03aa e33c cb8f 43bc
00000020: 3676 853c aaee 2a3d c922 bf3b 9a04 113c
00000030: 004e cdbb 2eb6 083c 4c32 20bc d130 613c
00000040: e6c3 dabc 1b84 86bb 6f42 0f3c 58c2 803c
00000050: 35bd 863c c97d 2b3c 1eec 2abc 444d 4ebc
00000060: 7c0c df3d 4fbc 033c a9ca ca3c 36ee adbc
00000070: 9eec 15bd 8cb8 673c 10fa 35bc 9651 313c
00000080: 03e7 d93c 502c cfbc e3f1 8dbc 84b7 97bc
00000090: d430 fa3c 9131 953c 8811 d6bc a67f 08bc
000000a0: 4151 4a3c 31eb 9bbc b22d 2dbc dec7 4d3c
000000b0: d42e 9f3c 59c5 53bc 74f8 273c e12c 27bc
000000c0: d420 473c 3c4a 953c 8ff0 b7bc 87af f2bb
000000d0: 7fef 3dbd 292e 033b 0451 35bc ec33 8dbc
000000e0: 782b 593c 7306 f7bc a157 2a3c 7305 b5bc
000000f0: b317 6e3c dcf7 b13c 714b 8a3b d880 da3b
00000100: bc7e 7c3c db9c 89bc 6f03 ff3b d0d7 84bc
00000110: e0cf eb3c 9373 87bc 4115 b3bc 3b5c 9b3d
00000120: 7410 16bc 1c31 e13c 7957 3bbc cd53 333b
00000130: 07ad 52bc b793 52bc f6eb 17bc 5c6f 1cbc
00000140: 8e26 553c d182 78bc c5ef 293c 2aec 583c
00000150: 52fd 903c 0b8f acbc a420 f8bc 3cb0 453c
00000160: 7b8a 04bd d399 dc3d 8014 66bc d0e9 61bc
00000170: 1bbb 71bc 8db6 db3c b82a 2b3c 1b87 a6bc
00000180: b27e 253c aafc f2bc 51c5 c23c 7f24 33bc
00000190: 755a 48bc b440 8bbc 789a 95bc 0972 5cbc
000001a0: dbf8 b5bc e068 6ebc 7ba4 4c3c e73a febb
000001b0: 466f 8d3c acb1 ccbc ee52 703c d85c dd3c
000001c0: 65f0 e73c 8d1e d0bc 64f6 84bc bbde 1a3c
000001d0: 7737 803c 17ee 5f3c 3fda 003c b29a 1d3c
000001e0: 137d 4a3c 191f 1ebc 23c3 89bc 037a 5ebc
000001f0: 39ec b3bc 97b0 43bc df06 1abd 9763 183c
00000200: 8f97 27bc b24f 913c 41e0 243c 038d 993c
00000210: b36f e7bc 9cd3 5f3c f2bf a63c 02d1 4a3c
00000220: b919 cabc 4c9e c5bc fa46 b8bc fbb4 b1bc
00000230: 1604 92bd 33a3 923c c44c 053c f215 cabc
00000240: f566 923c 4d27 2cbc 78b6 fa3b 70f0 2a3c
00000250: e91f 75bc cbba 1dbc bc07 75bc c7a2 01bd
00000260: 0159 b8bc a263 0bbc 3d22 babb 60f0 eabb
00000270: 6701 823c 7d23 5cbc ba61 cfbc 5576 583c
00000280: adda 4fbc 7670 803c d81c ba3c 993e a3bc
00000290: 22e4 f03b f8fd 5ebc 312f 9ebc 841c 87bc
000002a0: a3c0 093c a205 1fbd 4ba3 a8bc fe00 ee3c
000002b0: 51f0 7a3c bea6 8abc 7e01 903c ce7e 9e3b
000002c0: b3ac 58bc b181 39bc 4c8e 84bc 0288 2d3d
000002d0: 2f4c 87bc bd8a 21bc 743f 333d 3602 8ebc
000002e0: cc60 11bc 2118 bd3c 3456 503c 18d7 353c
000002f0: 770e f9bc 82a5 333c 6c91 46bc ab00 3cbd
00000300: c6e7 873c d9d6 873c 0d34 4d3c d831 0fbc
00000310: 483c 853c 8068 4cbc df82 833c 40e7 0fbc
00000320: 2d8f 483c 716f 18bd 0dc3 d4bc 1afd a13c
00000330: 0336 18bc b463 5c3c a38a 3abd cd91 b7bc
00000340: 76e8 75bc 281e 00bd 8413 553c ccd3 313c
00000350: 78b1 2bbc cfe7 4fbc 58b3 8c3c d3c3 2f3c
00000360: 57b0 b0bc 5295 593c 4dac 4f3c 2743 b43c
00000370: 3aff 1fbc 429f 07bc ec05 973c 1245 543c
00000380: 48c5 22bd 298f 19bc 8c5a 313c 5180 c8bc
00000390: 2a1d aa3c 6b1b 373c 42bd 33bc 60f9 183d
000003a0: 1273 5ebc dd22 c3bc 4a17 a3bc 12e5 2d3c
000003b0: f7e1 273c dccd 22bc a1fa 0f3c 49bc 703c
000003c0: 8f46 843c e2d8 863c 231a 2d3d 3ad7 973c
000003d0: 1429 843c ae74 fe3c a34e 3d3c 76cc e4bc
000003e0: 965f a03c fec3 14bc f223 97bc afd0 ec3b
000003f0: 866b abbc bb86 10bd f9a6 0fbd f118 523c
0.013584979 0.014404525 0.013926889 0.029866097 0.015119926 -0.0114579275 0.027791029 -0.011936138
0.016291719 0.041731514 0.005833004 0.008851195 -0.006265402 0.008344216 -0.009777617 0.013744549
-0.02670474 -0.0041051037 0.008743866 0.01571767 0.016447643 0.010467001 -0.010432271 -0.012591664
0.10891053 0.008040502 0.024754839 -0.021231752 -0.03660261 0.0141431205 -0.011106983 0.010822674
0.026599413 -0.025289685 -0.017327255 -0.018520124 0.030540861 0.018212112 -0.026131406 -0.008331215
0.012348474 -0.019033046 -0.010569977 0.012559859 0.01943151 -0.012925469 0.010252107 -0.010203571
0.012153823 0.018223874 -0.022453574 -0.0074061784 -0.04637098 0.0020016527 -0.011066679 -0.017236672
0.013254993 -0.030154442 0.010396869 -0.022097325 0.0145320175 0.021724634 0.004220419 0.0066681914
0.015411075 -0.016798427 0.0077823917 -0.016216189 0.028785646 -0.016534602 -0.02186072 0.07585951
-0.009159196 0.027489237 -0.011434429 0.0027363182 -0.012858636 -0.012852601 -0.009272566 -0.0095480345
0.01300968 -0.015167908 0.010372107 0.0132399 0.017698918 -0.021064302 -0.030289002 0.012065943
-0.032358628 0.10771527 -0.0140429735 -0.013788655 -0.014754082 0.026820445 0.010447197 -0.020328095
0.010101007 -0.029661495 0.023775728 -0.010933994 -0.012228598 -0.016998626 -0.018262133 -0.0134549225
-0.02221339 -0.014551371 0.012490387 -0.0077584866 0.017264973 -0.024987064 0.0146682095 0.02702181
0.028312871 -0.025405193 -0.01623077 0.009452517 0.015651448 0.013667605 0.007864534 0.009619402
0.012358922 -0.009650969 -0.016816681 -0.013578895 -0.021963226 -0.011943958 -0.03760421 0.009301088
-0.0102290055 0.017738197 0.010063232 0.018743997 -0.028251505 0.013661291 0.020355199 0.012378933
-0.024670469 -0.024123333 -0.022494782 -0.021692744 -0.071296856 0.017900085 0.008135978 -0.024668667
0.01787136 -0.010507417 0.0076511465 0.010433301 -0.014961221 -0.009627054 -0.014955457 -0.031649377
-0.022503378 -0.008507641 -0.005680351 -0.007169768 0.01586981 -0.013436195 -0.025315154 0.013211806
-0.012686414 0.015678626 0.022718832 -0.01992731 0.0073514143 -0.013610356 -0.019309612 -0.01649309
0.008407745 -0.03882373 -0.020585677 0.029053207 0.015316085 -0.016925212 0.017578837 0.0048368936
-0.013224768 -0.011322425 -0.016181134 0.042366035 -0.01651582 -0.009859738 0.043761685 -0.017335039
-0.008873176 0.023082795 0.012715865 0.011098646 -0.030402405 0.010964753 -0.012119632 -0.045899075
0.01659001 0.01658194 0.012524617 -0.008739911 0.016264096 -0.012476087 0.016053615 -0.008783162
0.012241167 -0.037215654 -0.025971914 0.019774009 -0.009290221 0.013451505 -0.04554237 -0.02240839
-0.015009036 -0.03127876 0.013005141 0.010853719 -0.010479324 -0.012689545 0.017175362 0.0107278405
-0.02156846 0.01328023 0.012675357 0.022004677 -0.009765441 -0.008277716 0.018435441 0.012955921
-0.039738923 -0.009372511 0.010824811 -0.024475249 0.02076586 0.011175971 -0.010970416 0.037347198
-0.01357724 -0.023820335 -0.019908566 0.010613697 0.010246745 -0.009936776 0.008787782 0.014693328
0.016146926 0.01646084 0.042261254 0.018535245 0.016132869 0.031061497 0.011554393 -0.027929526
0.019576829 -0.009079931 -0.018449757 0.0072270255 -0.020925295 -0.03528474 -0.035071347 0.012823329
