saved_model/checkpoint_critic_2048.pth (torch_old, 155706 bytes, 5 tensors)

fc1.weight f4 [128, 33]
000000 39 ed 94 bc 24 6f b5 be 9c 54 42 3e a0 b5 bb bd
       -0.018179523 -0.35436356 0.18977588 -0.091655016
000010 81 5f e2 3c c7 2b 39 be fe 5c 48 be bc 31 d8 3c
       0.02763343 -0.18083106 -0.19566724 0.026390903
000020 c0 0b 45 3e 0c a0 1d be e0 0e d5 bc c8 00 37 bd
       0.19242764 -0.15393084 -0.02600807 -0.04467848
000030 71 25 83 bd f0 7e 11 3c 39 23 56 3e 47 04 42 be
       -0.06403626 0.008880362 0.20911874 -0.18946944
000040 db 03 7d bc ab 6e 6b bc 92 c6 1c ba 01 f9 a0 3c
       -0.015442814 -0.014369647 -0.0005980517 0.019649984
000050 cf f9 a6 bc e7 34 0b 3d 21 8d a7 3d 0c 23 99 3d
       -0.02038279 0.033986 0.08181215 0.07477388
000060 64 68 44 3d 66 5c 14 be a9 4f d6 3d 59 96 89 bd
       0.047951117 -0.14488372 0.10464413 -0.0671813
000070 cc 8d 27 be 6c d0 2e 3d 04 6d 0c bd ea 40 12 3e
       -0.16362685 0.042679235 -0.034283653 0.14282575
000080 82 fe d4 be 65 6b c1 3d ce 15 92 3d e2 32 fe 3d
       -0.41600424 0.09444312 0.07133065 0.12412049
000090 96 cf 1e b9 a3 f1 70 be 9a 58 51 3d e2 08 89 3e
       -0.00015145386 -0.23529677 0.051109888 0.2676459
0000a0 8d c1 41 3c 22 8a 2f 3d 9d 4e 2a bd 1e a3 1c bd
       0.011825931 0.042856343 -0.041578878 -0.0382415
0000b0 2b bb bc bc 27 5d 3b 3d 4a c4 46 be fa 2c 9f bd
       -0.023038467 0.045743134 -0.19410816 -0.077722505
0000c0 ae f2 8e bd 96 28 57 bd 7f 38 15 3d d4 f8 d5 3c
       -0.06979881 -0.05252894 0.036430832 0.026119627
0000d0 9b c1 d6 bc e8 cc 7c 3c df 70 97 bd 75 14 14 3d
       -0.026215365 0.015429713 -0.07394575 0.03615232
0000e0 3f 9e ad 3d d2 62 b1 3b 6f 83 f0 3c ba 71 fe 3d
       0.08477449 0.0054133916 0.029359547 0.12424035
0000f0 1f ef db 3e e4 3e 68 be 20 13 d9 3c 0c ca 15 bf
       0.42955872 -0.22680241 0.026498377 -0.58511424
000100 10 4a d6 3c 38 59 bb 3f 93 c3 13 3e 13 53 b4 3d
       0.026158363 1.4636602 0.14430074 0.08804908
000110 7d 54 a2 bc a6 c4 ea bd 36 78 8c be 25 04 cb be
       -0.019815678 -0.11463289 -0.27435464 -0.396516
000120 4b 3e c9 3d cc 97 c1 bd 96 16 4e 3d 8d 7e 82 3d
       0.098263346 -0.09452781 0.05031451 0.06371794
000130 ed ec 8d bd 7e 6b 0f 3e 8e 69 71 bc d9 80 8c bd
       -0.06929956 0.14005849 -0.014734639 -0.06860513
000140 ae 51 a4 bd a7 b4 77 3e 8f aa 0d be 9e 74 89 bd
       -0.08023392 0.24190007 -0.13834594 -0.06711696
000150 18 f6 59 bd fa c5 97 bd 95 37 9d bc 49 a6 05 bd
       -0.05321321 -0.07410808 -0.019191543 -0.032629285
000160 22 24 bb 3d bf 8b 1d 3c 29 e1 5f bd 41 a5 e6 bc
       0.09137751 0.009615838 -0.05465809 -0.028154971
000170 00 7b 0f be 70 67 07 3f b9 d1 8a be 20 f0 bc bb
       -0.14011765 0.5289221 -0.2711313 -0.00576593
000180 47 29 7c be a8 b3 cd bc b7 3f 8e 3f 3f de c6 3e
       -0.24625121 -0.02511008 1.1113194 0.38841435
000190 a0 66 72 3d 23 8c 66 3e 3a d0 6c bd a7 e7 5b 3d
       0.059179902 0.22514395 -0.057815768 0.053687718
0001a0 9c b9 de bd 48 ae e1 3c 6a f2 aa bd 99 fb 4f 3c
       -0.10875246 0.027548924 -0.08347018 0.012694263
0001b0 23 0f cc bd 0b 95 89 3d 59 df f6 3b 3d bd 38 3c
       -0.099638246 0.06717881 0.0075339493 0.011275587
0001c0 19 11 18 bf a3 d5 b2 3b 31 02 a5 be 98 eb e9 bb
       -0.5940109 0.0054575964 -0.32228234 -0.0071386807
0001d0 68 f5 f2 3b e8 ab 14 bd 64 fd 62 bb 1d 24 dd bc
       0.0074145086 -0.036296755 -0.0034635896 -0.02699476
0001e0 95 f6 24 bd 26 50 20 3c 0a ff 1b be 5f 60 85 3d
       -0.04027422 0.009784734 -0.15234008 0.06512522
0001f0 cc ee 0b bd 53 40 9e 3e 9c d4 ac 3e 18 f3 75 3e
       -0.03416328 0.3090845 0.33755958 0.24018514
000200 20 0d a7 bd 1d dc 13 be b8 77 ea 3c 83 9b 30 3f
       -0.081568 -0.14439435 0.02862154 0.6898729
000210 51 1e ae be 4c 0d 84 be c8 f3 b6 3e bc 73 3b bd
       -0.34007505 -0.25791395 0.35732865 -0.04576467
000220 08 86 d2 bd 83 8a 9c bb f3 46 78 bd ae b9 1f bd
       -0.10279471 -0.004777254 -0.060614537 -0.038995437
000230 5a 78 c9 bc 22 c0 23 bd 3a a8 85 bc a8 3d 1a bb
       -0.02459352 -0.039978154 -0.016315568 -0.0023535285
000240 d6 0a 9b bc c5 de dc 3e d7 4c a7 3e 60 34 f8 be
       -0.018926065 0.4313871 0.32675812 -0.4847746
000250 97 50 38 bd 7b 16 e7 bc 30 41 00 bc 37 1c 62 bc
       -0.04499873 -0.028208962 -0.007828042 -0.013800672
000260 2f a0 b8 bc f6 31 21 3c 89 15 7c 3c 40 99 2e 3d
       -0.022537319 0.009838572 0.015385994 0.04262662
000270 b7 e5 41 3d e3 2c 0a bd bc be 4e be d7 8b 84 3e
       0.047338214 -0.033734214 -0.20189947 0.2588794
000280 05 37 95 3e 1c 92 01 3d 07 8c 7c bd f6 fd 17 3e
       0.2914354 0.03163348 -0.061656978 0.14842972
000290 a8 a3 1c be d8 c3 9a 3e b1 55 18 3e 4e ea 0d 3f
       -0.15296805 0.30227542 0.14876439 0.55435646
0002a0 4f 49 35 3d 1a e7 87 3e de 79 9e bd 3e 97 ae 3d
       0.044259366 0.26543504 -0.07738088 0.08524941
0002b0 22 89 91 3c 2d dd 89 bd 37 09 db 3d 0f 58 e2 3d
       0.017765585 -0.06731639 0.10695117 0.11051952
0002c0 50 45 81 3c d1 74 5b 3d 69 de 01 3d dc b4 5f 3b
       0.015780121 0.0535782 0.031706247 0.00341349
0002d0 db 9e df bd 50 05 da bd 23 0f 04 3a ef cd 3c bc
       -0.10918971 -0.106455445 0.0005037656 -0.011523708
0002e0 b7 1c a1 bd ed 67 d6 bc 1f dd 07 3d 53 e1 d8 ba
       -0.07866805 -0.026172603 0.033169862 -0.0016546644
0002f0 f1 b2 c1 bb 53 b0 22 3d 06 40 36 bc 0d 19 33 be
       -0.005911224 0.039718937 -0.011123663 -0.17490025
000300 c9 aa 50 3d d2 68 0e be a4 ba fc 3d b7 6b 05 3d
       0.050944123 -0.13907173 0.123402864 0.032573428
000310 76 a7 92 3d 73 71 07 3e ae 94 46 bb b8 04 25 3e
       0.07160847 0.13226871 -0.0030301022 0.16115081
000320 38 58 30 3f 1c fe 4b bc 68 8b 9c 3c f6 0e 62 bc
       0.6888461 -0.012450721 0.019109443 -0.013797512
000330 f0 02 7b 3d 66 3f 36 3c 47 a9 0f bb 6e 35 ea ba
       0.0612821 0.011123514 -0.0021920966 -0.0017868706
000340 96 ba 24 3c 65 7d e3 3b e4 39 82 3c 4b ad 9c 3c
       0.010054251 0.0069424384 0.015896745 0.019125601
000350 73 16 53 be 2e 59 3b bf e8 ae b6 bc 96 8c cc 3b
       -0.20614032 -0.7318295 -0.022300199 0.006242345
000360 6d 56 92 3c 90 e1 47 bc a5 29 19 3c 0b 0d c6 bb
       0.017863477 -0.012199774 0.009348308 -0.0060440353
000370 9c c9 0d 3c 78 59 5b bc 9e d6 bd bb 7c 2e 3c 3c
       0.008654024 -0.01338803 -0.0057934066 0.011485692
000380 86 e7 65 bc cb dc 4f 3e f9 e7 b2 3e a8 11 e5 bc
       -0.01403225 0.2029907 0.34942606 -0.02796252
000390 65 a6 d6 be d8 91 01 bd 45 69 a5 3d 5c f9 e9 3d
       -0.41923824 -0.031633228 0.08076719 0.11424515
0003a0 2b 66 f9 3e a0 b1 31 bd b1 22 47 be 38 30 0c 3f
       0.4871076 -0.043382287 -0.19446827 0.54761076
0003b0 d8 36 8c 3d f4 b4 6f 3c d5 d2 1e 3e d5 84 c9 3d
       0.06846398 0.014630545 0.15510114 0.09839789
0003c0 85 08 db 3d ad 2f 8c 3d b2 72 b0 3c ff a8 3f bc
       0.10694984 0.06845031 0.021539066 -0.011698007
0003d0 c7 91 06 bd 77 bc 14 be d4 77 5a bd 1b 83 ca bd
       -0.032853868 -0.14525019 -0.053336933 -0.09888288
0003e0 d5 c8 3d 3d b7 c6 e8 3d a3 8a 4c 3c 6d 06 da bc
       0.046334106 0.11366027 0.012484225 -0.026614392
0003f0 30 81 dc 3c 78 91 ec bb bc 91 43 3e 22 6b d6 bc
       0.02691707 -0.0072194897 0.19098562 -0.026174132

fc1.bias f4 [128]
000000 87 13 8c 3c c5 14 b4 be b4 76 80 be 81 96 a6 be
       0.017099155 -0.35172096 -0.25090563 -0.325367
000010 1b 6b 37 3d 2e d9 20 3d 13 73 ef bd 80 3d fb be
       0.044779878 0.03926962 -0.116918705 -0.49070358
000020 e4 6e 24 bf 36 c2 7c 3e c0 17 37 3e 59 a1 ae be
       -0.64231706 0.2468346 0.17880154 -0.34107473
000030 e5 08 99 be 01 c1 23 bf 34 c9 2f be 6a 61 93 be
       -0.29889598 -0.63966376 -0.17166597 -0.2878526
000040 49 0c ea be ff 5e e9 be 2e ac ef be 91 4c 13 be
       -0.45712498 -0.4558029 -0.4681105 -0.14384677
000050 b9 fc 81 be 08 c2 3d 3e 59 53 36 be 30 c0 31 bd
       -0.25388125 0.18531048 -0.17805232 -0.043396175
000060 b3 18 5b 3c 0c ea 36 3e b5 9a 2c bf ef ee 39 3d
       0.013372588 0.1786272 -0.67423564 0.04539388
000070 4a f4 bc bd f5 8b 8e be a3 aa b5 bd 0b 81 45 be
       -0.09226282 -0.27841154 -0.08870437 -0.19287507
000080 27 9b ca be 7b a9 f4 be f7 49 ef be 5b 2d 9e be
       -0.39571497 -0.47785553 -0.46736118 -0.30893978
000090 9e 2e 18 bf ac 37 97 be bb c2 89 be fe 73 f4 be
       -0.5944613 -0.29534662 -0.2690638 -0.47744745
0000a0 76 f7 60 bd 3d 49 8b be a7 e3 c6 be 8b 18 ed bd
       -0.054923497 -0.27204314 -0.3884556 -0.11576947
0000b0 30 0a d7 3d 8f 3c 82 be 13 03 8d be 18 9e 17 bf
       0.1049999 -0.25436828 -0.27541408 -0.59225607
0000c0 bd e5 94 3d 78 4b 07 bf 58 a4 7d be 24 f0 14 bf
       0.072703816 -0.5284953 -0.24769723 -0.58178926
0000d0 2b 56 b2 be c4 d6 0b bf 41 39 f1 be d2 ef 80 be
       -0.34831366 -0.5462458 -0.47113994 -0.25182968
0000e0 10 a0 b8 bd d3 50 57 3e f3 d0 6b bd 61 7d 06 bf
       -0.090149045 0.21026926 -0.057572316 -0.52535063
0000f0 fa 76 ee bd 41 8c f8 bd 01 ca 5b be a2 8f 26 bf
       -0.11643787 -0.12136126 -0.21463777 -0.65062916
000100 31 b7 bf be 7c da f7 be e4 24 ff be 68 a0 9c be
       -0.3744445 -0.48408878 -0.49832833 -0.3059113
000110 7c a6 9f be de ab 9d be 17 2c 8d be ae 95 b3 be
       -0.31181705 -0.30795187 -0.275727 -0.35075134
000120 ef ea c4 be 99 3e a3 be 72 46 a1 bd 12 9f 4d be
       -0.3846049 -0.31883696 -0.078747645 -0.20080212
000130 8c 28 82 be 9c b2 9b be 6e e6 a2 be 55 1e ee be
       -0.2542156 -0.30409706 -0.3181643 -0.46507517
000140 a4 ef c6 be e9 e5 70 be ca d4 33 3c 77 c0 ff be
       -0.38854706 -0.23525204 0.010976026 -0.49951527
000150 16 16 d1 be 05 06 b0 be 65 63 67 be 2b 58 67 be
       -0.40837163 -0.34379593 -0.2259651 -0.22592227
000160 8f 82 e9 be e3 47 f0 bd 8c f2 13 3d db 0f 07 be
       -0.4560742 -0.11732461 0.036119983 -0.13189642
000170 e8 06 4e be 2c f3 c3 be 2b 76 61 be 8d b6 65 be
       -0.20119822 -0.38271463 -0.22017734 -0.22432919
000180 f0 76 7b be 98 74 e9 be 73 16 20 3e 19 77 b1 be
       -0.2455709 -0.45596766 0.15633564 -0.34661177
000190 96 fe f9 be 19 ae 8b be 28 c8 a3 be 50 bb 6e be
       -0.48827046 -0.27281263 -0.31988645 -0.23313642
0001a0 08 d6 05 bf e6 93 ba bd f8 54 ad be 4a f4 a5 be
       -0.5227971 -0.09110241 -0.3385389 -0.3241294
0001b0 bf 4d 8b 3d f9 d7 06 3d cb f2 09 bf 39 fa 39 3e
       0.06801938 0.03292081 -0.538861 0.18161859
0001c0 38 cd 9b bd 82 7a 1d be a0 81 3b 3e 74 a7 2e be
       -0.07607502 -0.15378764 0.18311167 -0.17056066
0001d0 59 21 24 be 84 51 94 be 80 86 55 be ea 0d 1f bf
       -0.16028346 -0.2896844 -0.20852089 -0.62130606
0001e0 85 a3 bd be 84 42 a4 be 3a 81 a0 be fd ff dc bc
       -0.37038818 -0.32081997 -0.31348592 -0.026977533
0001f0 bc 15 d2 be f2 45 85 bd 1d 23 9a 3d 41 04 1b bf
       -0.41032207 -0.06507482 0.075262286 -0.60553366

fc2.weight f4 [256, 132]
000000 13 c3 91 bc 9b 63 9b be 74 aa ea 3d 47 19 4d 3e
       -0.017793214 -0.3034943 0.114582926 0.20029174
000010 8b 0e 01 bf 5d 48 6e 3d 1e eb 8f be a2 0c 1e bf
       -0.50412816 0.05817448 -0.28109068 -0.61738026
000020 ff 8f e8 bd 7d 4c 49 3e ee be b9 3d ec e2 69 bf
       -0.1135559 0.19658084 0.0906962 -0.9136188
000030 e8 e9 b6 3e b1 b6 68 3e b8 1e 87 be 64 66 ac bd
       0.3572533 0.22725941 -0.26390624 -0.08417967
000040 6e 18 11 3c 8a 30 6d bd 2e 9d c6 be 47 bd ed 3e
       0.008855922 -0.05790762 -0.38791794 0.4643347
000050 c0 1d 9f bf 26 5a 50 be c9 0a 44 be 94 ae a0 3d
       -1.2430954 -0.20346889 -0.19144739 0.07845798
000060 69 48 23 3f ad 69 0a be dc a2 e1 3c b6 28 8d 3c
       0.63782364 -0.13516875 0.027543478 0.017231327
000070 8c 66 c5 bd 7e b9 c0 be 7b 4d a5 bd 08 51 f8 bd
       -0.096387 -0.3764152 -0.08071419 -0.121248305
000080 be bd 0c bf c1 b9 10 bf 33 e5 a6 bc 8e 70 e4 3d
       -0.54977024 -0.5653344 -0.020372963 0.111542806
000090 5b e1 1d be bf 54 47 be 70 a1 67 bd 74 95 6a be
       -0.15417998 -0.19465922 -0.056550443 -0.22908574
0000a0 24 98 fa be 4e 48 a9 3e 5e a3 1b 3f ba ea 83 be
       -0.489442 0.33062977 0.60796154 -0.2576502
0000b0 e3 36 51 3d 1e 0e 58 bc 99 8a 78 be 66 6c ac bd
       0.051077735 -0.01318696 -0.24271621 -0.08419113
0000c0 81 bb 4f be a6 09 b0 be 9b 3f ad 3d 15 ae e0 3d
       -0.20286371 -0.3438236 0.084593974 0.109707035
0000d0 85 f2 ea be 6f 76 04 bc 5e 08 d6 3d 75 31 e4 bc
       -0.45888153 -0.008084877 0.10450815 -0.027855614
0000e0 73 01 b6 3e f5 12 f5 3e 0b 6d 02 bd 10 24 b5 3e
       0.3554798 0.47866026 -0.031842273 0.35379076
0000f0 80 8e 23 bf f0 9e 8a 3e 00 e6 b5 be a6 77 40 3e
       -0.6388931 0.27074385 -0.3552704 0.18795642
000100 6a 2e 84 3e bd dd 4b 3d 8d cf 11 3e b4 62 49 3d
       0.2581666 0.049772013 0.1423933 0.049166396
000110 ab 66 43 be e0 d7 54 bf 0a d0 c1 be 01 ab 69 bd
       -0.19082133 -0.831419 -0.37854034 -0.057047848
000120 81 ff 48 3e b4 6f af bd 7b f3 71 bc e0 1f 11 bf
       0.19628717 -0.085662276 -0.014767523 -0.5668926
000130 a3 18 37 3f 29 ed 8a bd 35 aa 88 3d 90 c7 2a bd
       0.7152197 -0.06783516 0.066730894 -0.041694224
000140 78 47 b7 bf 54 6e 2b be 0e 82 52 be a0 10 99 be
       -1.4318686 -0.16741306 -0.20557424 -0.29895496
000150 74 d7 d8 3e ac 24 e7 be f9 27 9a 3c 7a 9b b7 be
       0.42351878 -0.45145166 0.018817889 -0.35860807
000160 34 78 05 bd 74 9e ef be f1 62 10 3e 01 13 e4 be
       -0.032585338 -0.46800578 0.14100243 -0.4454575
000170 91 e6 14 be 2c 29 8d bd 44 43 bb bc 19 a3 0a 3e
       -0.14541079 -0.068926185 -0.022859223 0.1353878
000180 1d 77 38 3d f3 7b 56 be b0 c3 bf bb de a3 12 bd
       0.04503547 -0.2094572 -0.005852185 -0.035800807
000190 fb c7 c1 3e 96 48 3c be 35 fb 2d be 04 59 0f bf
       0.37847885 -0.18387064 -0.16990359 -0.559952
0001a0 25 bb b2 be 19 fe a1 be 7b c0 05 3d a7 fd b1 3e
       -0.34908405 -0.31639174 0.032654267 0.34763834
0001b0 58 b4 3e be 15 41 1b be b6 3c 81 3e 48 3c 85 3e
       -0.18623483 -0.15161546 0.2524163 0.26022553
0001c0 31 f7 be bd 1f f6 c7 3c b3 c6 04 3e 67 85 37 3e
       -0.09324492 0.024409352 0.12966423 0.17921983
0001d0 c9 76 02 3d d0 04 04 be 19 52 89 be f6 7e 0f be
       0.031851564 -0.12892461 -0.26820448 -0.14013276
0001e0 45 89 35 3e 2a ef ac bd 86 51 02 be 9a e3 9d bf
       0.17728145 -0.084440544 -0.12726411 -1.2335083
0001f0 89 1b 5d 3d e1 a9 2e 3d c6 1a 04 3e 1f 88 a3 3d
       0.053981338 0.042642478 0.12900838 0.079849474
000200 d4 ef 1e 3d e0 c7 b8 bb 68 58 53 be 73 ca 93 3c
       0.038802937 -0.0056390613 -0.20639193 0.018040871
000210 2b 62 fe bc 9e 5f 91 be 27 73 5f bd bb df c5 3d
       -0.03105267 -0.28393263 -0.054553177 0.09661814
000220 93 56 14 bd cb 24 33 bd e4 10 b0 be 75 6d 96 3e
       -0.036215376 -0.04373626 -0.34387887 0.29380384
000230 2f db b1 3d 4e ef 24 3e a2 c7 04 3e 9a dc 1c bf
       0.08684384 0.16106912 0.12966779 -0.6127411
000240 0b cb a2 3e 38 46 33 be d8 83 db bd 11 22 76 bd
       0.31795534 -0.17507255 -0.107185066 -0.060091082
000250 4d ad 12 3d 02 cf 11 3e d1 ae c2 be d3 c0 05 bd
       0.035809804 0.14239123 -0.38024 -0.032654595
000260 9c 11 77 3e 9d a8 ab be 8a e8 67 be 22 c8 58 3d
       0.24127811 -0.3352708 -0.226473 0.052925237
000270 b3 dd 80 3d 4a eb 85 3c 2b fd 33 bd dc f6 47 3d
       0.06292286 0.016347546 -0.04394261 0.048819408
000280 0f f0 6f 3e 22 67 dd 3d b4 b0 55 be 09 59 8d be
       0.23431419 0.10810687 -0.20868188 -0.2760699
000290 a1 d9 0b be ef 57 95 3d 97 c0 47 bf 82 3e ab 3c
       -0.13657238 0.072921626 -0.78028244 0.02090383
0002a0 41 ca a5 bd 61 f0 a6 be ae 60 b4 3d 19 9f 43 be
       -0.080952175 -0.3260527 0.08807503 -0.1910366
0002b0 65 8a 76 bb f0 71 c7 3c 01 62 9b bd 10 e8 4d be
       -0.003761911 0.024346322 -0.07587052 -0.20108056
0002c0 79 76 24 bc 7a 08 62 3d 96 3b 27 bf c0 a2 4d be
       -0.010038012 0.055183865 -0.65325296 -0.20081615
0002d0 fc e6 50 3e e4 3f 62 be dd 16 43 3d 06 55 79 bd
       0.20400614 -0.22094685 0.047629226 -0.0608721
0002e0 1e 0d 97 3e 77 71 e5 be d1 f9 3a be 46 c5 8a 3e
       0.29502195 -0.4481313 -0.1825936 0.27103633
0002f0 59 08 f1 bd f7 69 5d be 20 ae d0 bd b2 fb e7 3d
       -0.1176917 -0.21622454 -0.10189462 0.11327304
000300 8b c8 e8 3d 30 ce 83 bd 15 94 e3 bd 79 05 ab bd
       0.113663755 -0.064358115 -0.11112229 -0.08350653
000310 95 33 f0 bd 55 f5 e6 be c1 43 f3 3d 28 c9 ce be
       -0.117285885 -0.45109048 0.118781574 -0.40387845
000320 8d cd 04 be d6 06 c9 3d 32 f0 ef bd 96 f2 c0 3d
       -0.12969036 0.09815757 -0.117157355 0.094212696
000330 07 f2 36 be 2e 59 e3 be d5 55 ab 3d c4 ef 39 bd
       -0.17865764 -0.44403976 0.083659805 -0.045394674
000340 09 bd c2 3c 73 f2 b6 bd 14 2c 30 be 07 e1 31 3f
       0.02377178 -0.08932962 -0.17204314 0.6948399
000350 e2 88 fe bc 3f 74 fc 3d e4 eb 81 be a2 f2 40 3c
       -0.03107113 0.1232686 -0.25375283 0.011776598
000360 8a d2 68 bd 0d f8 bb be df 56 de bd 30 4c 0d 3e
       -0.05684141 -0.36712685 -0.10856413 0.13798594
000370 b1 63 fd be b1 6a 52 be 2b b5 1d bd b1 da 17 3d
       -0.4949012 -0.20548512 -0.038502853 0.037073795
000380 fe 6e 22 3b e4 64 7f bc cd e0 1e be 18 35 2c 3d
       0.0024785395 -0.015588019 -0.15515442 0.04204282
000390 09 1f cc 3d 8d 20 5d 3e 55 4c 88 bd 66 cd 5b be
       0.09966857 0.21594448 -0.06655184 -0.21465072
0003a0 59 ce 21 3e 49 9a ce 3b 6d 4a 86 be da ab 63 be
       0.15801372 0.0063050133 -0.26228657 -0.22233525
0003b0 5c d1 c6 bd 25 e6 e0 bd 16 9c b6 be 91 42 e1 3d
       -0.09707901 -0.109813966 -0.3566596 0.10999025
0003c0 78 2c d3 bd dc cb bb bb e5 f3 6c bf 72 08 bd bd
       -0.10311216 -0.005731089 -0.92559654 -0.092301264
0003d0 3d 28 b6 bd 9d 8e 02 be b5 9d 30 bd a1 a8 27 be
       -0.088943936 -0.12749715 -0.04311915 -0.1637292
0003e0 de d7 1a bc de 6b 56 be 42 bc 83 3e 5a ea ce bd
       -0.009450881 -0.20939586 0.25729567 -0.10103293
0003f0 08 89 65 3e 56 a9 6b be 08 a6 0a be be 25 93 3d
       0.22415555 -0.23013815 -0.13539898 0.07184933

fc2.bias f4 [256]
000000 75 24 9a be 96 bc 67 3d 53 1b bc 3d 62 98 9e 3e
       -0.3010594 0.056576334 0.09184899 0.30975634
000010 e7 55 2d 3e 04 b5 9a be 2c 66 21 bf ec 5d 90 be
       0.169273 -0.3021623 -0.63046527 -0.28196657
000020 84 36 0f be 9b 5b cf be 89 6c 5a be a3 96 8c bd
       -0.1398564 -0.40499577 -0.21330465 -0.06864669
000030 44 60 84 3e af 7c 2d be 88 1d 07 3e 00 09 3b 3e
       0.25854695 -0.16942094 0.13194859 0.18265152
000040 c9 99 72 3e 41 99 71 bd db c0 c7 3a ef ef 11 bd
       0.23691477 -0.058984045 0.001523997 -0.03562921
000050 b7 17 d6 3d 7d 62 a5 be 95 a7 7f 3e a4 bd d0 be
       0.10453742 -0.32301703 0.24966271 -0.40769684
000060 69 ce de 3d 5f 9d 78 3e d6 c7 34 3e b2 73 4a be
       0.10879213 0.24278782 0.17654356 -0.19770697
000070 ec f7 aa be a4 9b 8b 3e 54 f3 1d 3c 7d 44 fa bd
       -0.33392274 0.27267182 0.0096405335 -0.12220094
000080 76 55 0f 3e 07 a5 6e be bb 50 b5 3e de 0d 27 be
       0.13997445 -0.2330514 0.35413155 -0.16313884
000090 cb 83 b3 3e e0 ff 77 be 0c 0b 13 3e ad 7b 39 be
       0.35061488 -0.24218702 0.14359683 -0.18113585
0000a0 2f f5 0a bf 21 8c 4f be 76 50 8e be b2 ee 2e 3e
       -0.5428037 -0.20268299 -0.27795762 0.17083243
0000b0 39 40 3d 3e 1a dd e4 bd bc d6 ba bc de 91 ab bc
       0.1848153 -0.11174984 -0.022807471 -0.020943578
0000c0 93 4a 52 be a8 87 d1 3d bb 9c b5 3d b3 fe 88 3e
       -0.2053626 0.102309525 0.088677846 0.2675682
0000d0 49 a8 51 3e 0f b1 d1 bd 2a 37 80 3d 4a b0 08 3e
       0.20474352 -0.10238849 0.06260522 0.13348499
0000e0 0e d6 ea bd 42 57 33 3e 8d a0 8a bd 36 2f 79 be
       -0.11466609 0.17513755 -0.06768904 -0.24334416
0000f0 9b c2 45 3e 7e 83 6a 3e 7a 0f 07 bf ab af 38 3c
       0.19312517 0.22901723 -0.5275799 0.011272351
000100 64 30 3a 3e 53 d3 b1 3d 28 52 89 3e f3 95 54 3e
       0.18182522 0.08682885 0.26820493 0.20760326
000110 2c 36 10 be ae 84 f5 be 52 cd 72 be 38 28 14 3e
       -0.14083165 -0.4795279 -0.23711136 0.14468467
000120 10 9f 07 3e 96 98 22 be 77 82 0a bb eb 95 f1 bb
       0.13244271 -0.1587852 -0.0021134892 -0.007372608
000130 10 71 8a 3e e6 a2 b7 bd 1a 10 8b 3e c7 fa 52 bc
       0.27039385 -0.08966617 0.27160722 -0.012877173
000140 00 bd f5 3c 71 ba ce 3e 23 c0 37 3e b5 94 63 be
       0.029997349 0.40376619 0.17944388 -0.22224696
000150 3e 39 fd 3d 10 ee 98 be af 1e 42 be 00 be 07 3e
       0.12364434 -0.29869127 -0.18957017 0.13256073
000160 ac 6e 13 3e 74 7f 0b be 65 da 11 3e 08 86 94 3e
       0.14397687 -0.13622838 0.14243467 0.29008508
000170 be fb bb be b8 c5 15 be f8 1e 27 be 14 86 a0 be
       -0.36715502 -0.14626205 -0.16320407 -0.31352293
000180 fd 0c cd be b3 ca cc bd f3 09 7f 3e f6 99 68 bd
       -0.40048972 -0.09999599 0.24906139 -0.056787454
000190 51 fa 6e 3e 14 fe 96 3e f4 b9 16 3e 11 6e f6 bc
       0.23337676 0.2949072 0.14719373 -0.03008178
0001a0 b7 c5 47 3d 31 37 bc be 80 32 42 be 44 2c ad be
       0.04877254 -0.36760858 -0.18964577 -0.33822834
0001b0 07 01 dd be 34 41 0d bf ce b4 ac be 45 3a 42 be
       -0.43164846 -0.5517762 -0.33731693 -0.1896754
0001c0 38 8d 87 be f0 1a fc 3d c3 ef 3f 3e 67 a2 85 3d
       -0.2647493 0.123098254 0.18743806 0.065251164
0001d0 28 1b c4 bd 40 f5 7b bd 53 c7 81 3e 9a 3c 90 3d
       -0.09575492 -0.061513186 0.25347385 0.07042809
0001e0 8f 44 38 3e 5e da 29 bd cd f9 66 3e af 73 d9 be
       0.17994903 -0.041468017 0.22556229 -0.42471072
0001f0 30 8f 72 3d 82 3e 09 3e ff 6c 8e 3e da 12 74 bd
       0.059218585 0.13402751 0.27817532 -0.05958829
000200 e6 71 75 bc be c1 9c be fe 10 4a 3e c4 ed f6 bd
       -0.014980769 -0.30616564 0.19733045 -0.12057069
000210 97 02 e5 bd 73 b8 31 be 9f 56 80 3e 5e d5 8c 3e
       -0.111821346 -0.17355518 0.25066087 0.27506536
000220 35 f7 3a be 00 68 b9 be 75 98 6f 3e 90 97 87 bd
       -0.18258364 -0.36212158 0.23398001 -0.06620705
000230 f5 41 8c be fd bf a7 be 91 53 45 be 75 bd 0f be
       -0.2739407 -0.32763663 -0.1927016 -0.14037116
000240 ee 42 ad be e8 ca 2e be 17 73 58 bf f8 eb 30 be
       -0.33840126 -0.1706959 -0.84550613 -0.17277515
000250 b3 1a 1c 3e 23 f0 94 bd 10 bf 9b 3d fe f9 80 3d
       0.1524456 -0.07272365 0.07604802 0.06297682
000260 60 8d d5 bd 35 7f 28 3e 40 b4 20 3c b5 32 5a 3e
       -0.10427356 0.16454776 0.0098086 0.21308406
000270 27 d5 9b 3e 21 95 e2 3d 26 d4 37 be 15 9b 63 3d
       0.3043606 0.110636 -0.17952022 0.05556782
000280 5c 07 a2 3e 3a 2e ff 3d 73 86 e4 bd 7a 31 b6 3e
       0.3164624 0.12459989 -0.11158457 0.35584623
000290 d8 be 89 3d 5d 65 9f bd 2c 36 db be 8e 72 39 3e
       0.06725854 -0.077830054 -0.42814767 0.18110105
0002a0 e2 4d 85 bc cd 77 47 bc 36 07 20 be c0 34 b2 be
       -0.016272489 -0.012174559 -0.15627751 -0.3480587
0002b0 41 73 dc 3e 57 31 c2 3d 05 fa 73 3d 2c 0b 2b be
       0.43056682 0.09482067 0.05956461 -0.1670348
0002c0 16 42 a0 be d5 b9 83 3e ba dd ea 3d 43 74 08 3d
       -0.3130042 0.25727716 0.11468072 0.033314
0002d0 59 d4 b0 3e 91 68 a4 be e6 49 44 3e 6d 46 a0 bd
       0.34537008 -0.32111028 0.19168815 -0.07825933
0002e0 10 b1 41 3d 8c ce 2b be 41 3b 4f 3e e7 7e 87 be
       0.047288 -0.1677801 0.20237447 -0.26464006
0002f0 c8 e6 4e 3e 03 a6 c3 bd 10 a8 c8 3e ad 26 2b 3e
       0.20205224 -0.095531486 0.39190722 0.16713972
000300 0d 79 5a 3c 51 9c 67 3e 1a c1 d0 3e c6 f7 aa 3d
       0.013334525 0.22618224 0.40772325 0.0834804
000310 92 00 ca 3c 21 e6 2b 3e 1c 56 f9 bd f0 9d 03 bf
       0.024658475 0.16787006 -0.12174627 -0.5141287
000320 a7 fe cd 3d f3 1e 89 be f5 6b 8a be 19 05 52 3e
       0.10058337 -0.26781425 -0.2703549 0.20509757
000330 7e 50 54 3c b0 03 71 bd 69 c4 99 bd 61 bc 15 3d
       0.012958644 -0.058841407 -0.075081654 0.036556605
000340 84 c7 9b 3e f6 16 ec 3d d2 6e f4 bb d5 a0 d0 bd
       0.30425656 0.11527817 -0.0074595 -0.10186926
000350 89 c1 18 3d 76 9b bc bd 47 0f 8c be fe 49 3b 3e
       0.037293945 -0.09209339 -0.27355406 0.18289945
000360 30 3c 13 bf 81 b5 15 bd 57 b6 73 3d e2 5c a3 3e
       -0.57513714 -0.03655005 0.059500065 0.319068
000370 19 9e 51 3e a8 a0 83 be a1 25 70 be e6 4b 44 be
       0.20470466 -0.25708508 -0.23451854 -0.19169578
000380 9a 2f 36 be 20 c3 f8 be b5 63 48 3e 99 a7 56 be
       -0.17791596 -0.4858637 0.19569285 -0.20962371
000390 93 ed c8 3d 18 f2 f6 bd 51 39 4a 3d ba ba a9 3e
       0.09810939 -0.120578945 0.049371067 0.33150274
0003a0 18 3d f0 bc c0 41 62 be bd 0a 76 3e 71 dd 09 be
       -0.029326007 -0.22095394 0.24027534 -0.1346338
0003b0 b7 99 a7 be 1a ee 23 3e 2b d9 b6 3d ab 0f 96 3e
       -0.32734463 0.16008797 0.0892814 0.2930883
0003c0 87 4e ff 3d 04 1c 47 be 8e 99 59 3e 74 54 bb 3e
       0.1246615 -0.19444281 0.21249983 0.3658787
0003d0 ed 78 9c bd 32 5d e1 be 16 cb aa bd 47 fc 01 3e
       -0.07640252 -0.44016415 -0.08339517 0.12693892
0003e0 a0 ed d1 3d 83 02 b4 be 9e d6 0a 3e 6f 65 a7 bc
       0.102504015 -0.35158166 0.13558432 -0.02043411
0003f0 8f 71 da 3d 77 96 ff be 2b 46 97 be e0 ce 92 3e
       0.10666191 -0.49919483 -0.2954572 0.28673458

fc3.weight f4 [1, 256]
000000 99 b5 b5 bc 7f 90 3c 3c a0 6b 4d 3c e8 a0 6b 3c
       -0.02218132 0.01150906 0.012537867 0.014381625
000010 50 72 3a 3c 83 6c 2b 3d b1 c8 89 bd c7 6e 42 bc
       0.011379793 0.04185153 -0.06727732 -0.011867232
000020 c1 26 5d 3c 92 b5 c3 bc a6 cd 2d bc 6c fe 5e bc
       0.013498009 -0.02389029 -0.010608112 -0.013610464
000030 01 71 8c 3c 10 8e 26 3d 4d fd a2 3c 0e d7 26 3c
       0.017143728 0.040662825 0.019896174 0.010183109
000040 e5 c9 8c 3c 5f c2 41 bc 2c 50 a5 3c f0 a4 3d 3c
       0.017186115 -0.011826127 0.02017983 0.011574969
000050 c7 6f 26 3c 42 4c 5f bc 74 2d f2 3b b7 4f 17 bc
       0.010158486 -0.013629021 0.0073906723 -0.009235314
000060 01 53 4c 3c 0d 10 a3 3c 8d 44 38 3c 3f c2 33 bc
       0.012470962 0.019905115 0.0112468125 -0.010971605
000070 5a 47 56 bc 70 f6 40 3c 93 82 4e 3c a3 25 57 bc
       -0.013078535 0.011777505 0.0126043735 -0.013131532
000080 7a 2a 33 3c 9e 7f 2a bc 4d ac b5 3c 4e 33 29 bc
       0.01093542 -0.010406403 0.022176886 -0.010327173
000090 86 20 41 3c 9f ff 4b bc 02 c3 68 3c ef 7b 9b 3d
       0.011787539 -0.012451082 0.01420665 0.07591998
0000a0 63 a0 4f bc 5e be 33 3c 6e 0d 76 bc 36 f0 5a 3c
       -0.0126725165 0.01097068 -0.01501785 0.013362935
0000b0 aa 03 08 3c aa 48 56 bc e0 08 51 bc 15 e5 87 3c
       0.008301655 -0.013078848 -0.012758464 0.016588727
0000c0 fe 3f 3a bc 95 8f ff 3b be ff 39 3c 12 1e 6a 3c
       -0.011367796 0.0077990987 0.011352478 0.014289396
0000d0 53 78 86 3c 94 83 87 3c 3d d9 d9 3b 2d 69 b6 bc
       0.016414797 0.016542234 0.0066482113 -0.022266949
0000e0 69 d1 7c bc e3 8f 21 3c 0f 87 1a bc 77 58 85 bc
       -0.015430787 0.009860965 -0.009431615 -0.016277535
0000f0 0f 1a 31 3c 1b 33 51 3c 9a e5 34 bc 6a 6a 8d bc
       0.0108094355 0.012768532 -0.011041069 -0.017262656
000100 27 51 2c 3c 5c 31 50 3c 0d 38 8d 3c 49 06 2d 3c
       0.010517395 0.012707081 0.017238641 0.0105605805
000110 e3 70 42 bc 7b 81 0c 3d 1f 70 2d bc d1 d9 82 3c
       -0.011867735 0.03430317 -0.010585814 0.015973004
000120 a3 25 3a 3c 9d a0 30 bc 86 cb 63 bc 5c fd 2a 3c
       0.011361512 -0.010780481 -0.013903504 0.010436382
000130 54 65 40 3c e9 44 45 bc 2b 43 7d 3c 42 ee 7c bc
       0.0117429085 -0.012040355 0.015457909 -0.015437664
000140 de f6 12 3c 52 06 9a 3d 5e a8 4f 3c f3 51 aa bc
       0.008969991 0.07520737 0.012674419 -0.02079103
000150 5c 1c 17 3c 8f 23 24 bc a9 71 49 bc dc 0f f5 3b
       0.00922307 -0.010018243 -0.012295165 0.007478697
000160 43 cb e6 3b a6 92 43 bc 02 ea 3d 3c 3b 57 7c 3c
       0.0070432737 -0.011936819 0.011591436 0.015401657
000170 fa 41 01 3c 10 d9 af 3c b5 cc 3f bc ab a1 f6 bb
       0.007889265 0.021465808 -0.011706521 -0.0075265965
000180 01 ac 9d bc 97 98 96 bc 7a 5e 72 3c 6d 36 1b bd
       -0.019247057 -0.018383307 0.014793033 -0.0378937
000190 66 92 32 3c fa 1a 96 3c b2 2e f9 3b d9 8d 86 3c
       0.010899162 0.01832341 0.0076044435 0.01642506
0001a0 6b ff 41 bd fd 4d 8a bc a6 61 82 3c 88 47 96 bc
       -0.047362726 -0.01688289 0.015915703 -0.018344656
0001b0 73 18 60 bc b2 7e 67 bc f0 ec 56 bd bf f5 44 bc
       -0.013677704 -0.014129328 -0.052472055 -0.012021481
0001c0 eb df 88 3c 2a 51 41 3c 95 0b 7f 3c 33 1a 85 3c
       0.016708335 0.011799136 0.015566726 0.016247844
0001d0 f2 83 42 bc 55 72 b3 3c 99 30 cc 3c 13 83 4e 3c
       -0.0118722785 0.021905104 0.024925517 0.012604493
0001e0 0a 82 06 3c b8 78 b2 bc e5 7d 0d 3d 15 52 24 3c
       0.008209715 -0.021786079 0.03454389 0.0100293355
0001f0 08 6a 4b bd fe 74 3b 3c 07 a8 41 3c fc 3a 8e bc
       -0.049661666 0.011441467 0.011819846 -0.01736211
000200 ff 19 45 bc 6e 52 b1 bc b9 84 3d 3c 25 61 a4 bc
       -0.012030124 -0.02164575 0.011567288 -0.020065853
000210 31 af 89 bc 50 fb 1e bc c4 38 3d 3c 28 12 5a 3c
       -0.01680717 -0.009703472 0.0115491785 0.013309993
000220 a0 b9 77 bc 02 3b c0 3c 91 70 14 3c d4 28 4b bc
       -0.01511994 0.023465637 0.009060041 -0.012399871
000230 cb bd 52 bc b2 f7 25 bc 0f ed 1a bc b2 c8 64 bc
       -0.012862633 -0.010129856 -0.009455933 -0.013963865
000240 5a dd 43 bc 69 01 a6 3c 2c 21 09 3d 1d 6a e3 3c
       -0.01195463 0.020264344 0.0334789 0.02776056
000250 d1 4f 7e 3c 19 e7 2e bc 65 10 96 bc f3 c8 85 3c
       0.015521959 -0.010675215 -0.018318364 0.016331172
000260 97 c8 ab bc 45 ba 73 3c 4a bb 7b bc bf b6 c3 3c
       -0.020969672 0.014875953 -0.015364477 0.023890851
000270 2b f8 80 3c 26 d4 3d 3c 70 cd 3e bd 4f b4 02 3c
       0.015743336 0.011586225 -0.04658264 0.007977559
000280 cf 41 64 3c 09 ac 4c 3c f9 8c ce bc 75 d1 f1 3c
       0.013931706 0.012492188 -0.025213705 0.029518822
000290 98 a3 81 3c b6 89 ec bc 51 db f8 bc 3b 6d 81 3c
       0.015825078 -0.02887426 -0.030378016 0.015799155
0002a0 44 07 3f 3c d8 55 4f bd ce 92 57 bc 7b 0e 51 bc
       0.011659447 -0.050618976 -0.01315756 -0.0127598
0002b0 db 54 bd 3d 8f db 84 bc 1c 84 10 3c 4b f9 94 bd
       0.092447005 -0.016217975 0.00882056 -0.07274111
0002c0 71 df 29 bc 39 82 a5 3c e9 28 81 3c b1 c2 0a 3c
       -0.010368214 0.020203697 0.015766578 0.00846927
0002d0 06 7c ac 3c 9b 78 92 bc d7 18 0b 3c e7 40 16 3c
       0.021055233 -0.017879775 0.008489809 0.009170747
0002e0 81 36 4e 3c c6 f0 9f bc a3 22 4e 3c b6 21 1e bc
       0.012586237 -0.01952399 0.0125815 -0.009651592
0002f0 83 c9 d6 3b 36 05 68 bc 13 d1 09 3d 34 c4 8b 3c
       0.006554784 -0.014161399 0.033646654 0.01706133
000300 40 e8 56 bc 32 8d 47 3c 32 0b fd 3d 32 9a 41 3c
       -0.013116896 0.01217966 0.12355651 0.011816548
000310 b7 04 09 3c f2 20 17 3c b1 57 a7 bc f9 7f 0a bd
       0.0083629405 0.009224163 -0.020427557 -0.03381345
000320 40 90 39 3c d2 af 4d bc 8a 9d 3c bc 96 65 b5 bd
       0.011325896 -0.012554126 -0.01151217 -0.088572666
000330 95 94 91 bc d3 0d 63 bc 10 00 ba bc 21 86 23 bc
       -0.017771045 -0.013858276 -0.022705108 -0.009980709
000340 fc 02 7f 3c f8 08 4d 3c b8 c4 47 bc 72 89 5d bc
       0.015564676 0.012514345 -0.0121928975 -0.013521539
000350 4e 7e 32 3c d4 f5 9a bc 30 b0 c9 bc f5 4e 3d 3c
       0.010894371 -0.018916048 -0.024620146 0.011554469
000360 63 98 ce bc f8 f6 9b bc c1 ce 6f bc af c3 70 3c
       -0.025219148 -0.019038662 -0.014636696 0.014695092
000370 c4 10 19 3c 7c 22 9e bc 99 d8 7f bc 95 89 72 bc
       0.009342376 -0.019303553 -0.015615606 -0.01480331
000380 51 31 2d bc 4f bc 8d bc 27 4d 18 3c 0e 32 4b bc
       -0.01057084 -0.017301707 0.009295738 -0.012402071
000390 31 3e 02 3c 27 2c 30 bc fe 2a 71 bc f8 b1 c2 3c
       0.007949398 -0.010752714 -0.014719723 0.023766503
0003a0 23 be e9 bc 90 6e 42 bc c3 ea 73 3c 4d 99 9c bc
       -0.028533047 -0.0118671805 0.0148875145 -0.019116068
0003b0 66 63 96 bd b3 85 31 3c 31 56 bd 3c 52 ea 29 3c
       -0.073431775 0.010835099 0.023112388 0.010370808
0003c0 08 6b 17 3c c5 40 5e bc 28 a7 2e 3c 50 fe 8d 3c
       0.009241827 -0.013565247 0.01065997 0.01733318
0003d0 24 5b 6c bc 32 3d 59 bd 3a a4 72 bc 2d 98 fb 3b
       -0.0144260265 -0.053036876 -0.0148096625 0.007678053
0003e0 ca 0b 47 3c 78 82 e2 bc 3a c0 40 3c c7 79 a3 bc
       0.012148807 -0.027650103 0.01176458 -0.019955529
0003f0 e1 91 42 3c 5d c2 02 bd 5a 8b 2a bd 88 58 4f 3c
       0.011875601 -0.03192364 -0.041636802 0.012655385
