saved_model/checkpoint_actor_2048.pth (torch_old, 154694 bytes, 6 tensors)

fc1.weight f4 [128, 33]
000000 84 f0 2a be 5f 84 d8 bc 0f 8d 3a be 47 8b af bd
       -0.16693312 -0.026430307 -0.18217872 -0.08571487
000010 6d 23 62 3d 96 50 1a be 60 8c 8a be 23 46 b2 3d
       0.055209566 -0.15069804 -0.27060223 0.08704784
000020 85 07 a2 bd 69 2c 75 3e f3 bb b3 bd c1 7d f5 3d
       -0.079115905 0.23942722 -0.08776083 0.11986876
000030 4b 27 6f bd 7d 52 19 3e 71 57 37 3e 33 f2 d5 3e
       -0.058387082 0.14972873 0.1790445 0.41786346
000040 f8 0e 29 3d 5c 9b f7 bc da 1e ce bb 80 b6 b6 bc
       0.04127404 -0.030225448 -0.006290299 -0.02230382
000050 7f 0e 62 be 75 7e fb 3d 2f 28 25 be 81 46 17 bd
       -0.22075842 0.12279979 -0.1612861 -0.036932472
000060 a1 4a ea 3c 5b 5c 38 3e 15 52 2c be 34 f7 6d 3e
       0.028600039 0.18003981 -0.16828187 0.23238832
000070 13 a6 a8 be b4 a3 8e 3d 13 b8 bf bc ac ef 84 bd
       -0.32939205 0.06964818 -0.023403203 -0.06491026
000080 40 5b 01 bf 5a e0 d8 3e d6 7f 37 3e 9c 41 b5 bd
       -0.5052986 0.42358667 0.1791986 -0.088504046
000090 67 e7 77 bd 1c 3d a1 3e e3 9e 2e 3e fc 5f 18 3d
       -0.060523417 0.31491935 0.17052798 0.037200913
0000a0 c5 41 31 3e e6 3d 52 be 58 d7 da 3c 76 88 3b 3c
       0.17310245 -0.20531425 0.026714012 0.011446109
0000b0 d5 ac 49 3a 84 1d 0f bc 06 68 29 be 9f 32 68 be
       0.00076932955 -0.008735064 -0.16543588 -0.2267556
0000c0 b9 d4 5d 3c 28 da ea 3d e5 0c 87 3c 11 9a 94 3c
       0.013539487 0.11467391 0.01648564 0.01813987
0000d0 ba b4 e8 3c 68 b5 83 bc 69 75 f5 bd b9 4c 86 3d
       0.02840649 -0.016077712 -0.11985285 0.065576024
0000e0 60 36 8d bd 55 22 fa 3c 37 27 57 ba e1 24 83 be
       -0.06895137 0.030533949 -0.00082074426 -0.25614074
0000f0 36 5d d4 3d a7 f3 f1 bd 08 7c 73 bd d4 22 a4 3d
       0.10369341 -0.11814051 -0.059444457 0.080144554
000100 cf 10 8c bd e0 6e eb 3d ce d5 93 bd db 9c 7b 3d
       -0.068391435 0.11495757 -0.072185144 0.061428886
000110 f6 68 0b 3e ee 89 58 bc 32 ea 46 be a5 e1 10 be
       0.13614258 -0.013216479 -0.19425276 -0.14148577
000120 7d 82 51 3e 16 fb 2c 3d d9 e4 98 3d 6e 3f 80 3d
       0.20459934 0.04223164 0.07465524 0.06262098
000130 45 5f 17 3d 22 f0 42 3e cd 11 49 3d f4 1a a3 3d
       0.03695609 0.19036916 0.04908924 0.07964125
000140 4d 93 36 3d 33 74 94 be 56 07 8d bd 5d c2 a4 3d
       0.04457407 -0.28994903 -0.06886165 0.08044884
000150 1d 34 33 3d 42 59 a4 bc 54 e0 77 be 84 cb 08 be
       0.04375087 -0.020062093 -0.24206668 -0.13358885
000160 f3 67 37 3e ce a3 10 bd 22 86 59 3d cb 1b cb 3d
       0.17910747 -0.035312466 0.053106435 0.099174105
000170 a2 d3 86 bd da 30 5f bd 7c db f9 bc 5e e6 78 bd
       -0.065833345 -0.054489948 -0.030500166 -0.06076657
000180 99 83 32 3e 94 25 e9 3d c9 31 87 be 50 b3 57 3e
       0.17433013 0.113841206 -0.2640517 0.21064496
000190 d4 3a b8 3d 1e 3c 34 3e bc e5 ca bc f3 fb c3 3e
       0.089955956 0.17601058 -0.024767749 0.3827816
0001a0 bb 09 07 3d c0 2b 54 bd 4f bd 4e 3e aa ec 60 3e
       0.032968264 -0.051799536 0.20189403 0.2196528
0001b0 33 27 4e be 09 b2 dd bd bc ea 10 bd fd 6c 52 3e
       -0.20132141 -0.10824973 -0.03538011 0.20549388
0001c0 10 a1 cb bd 3e 02 4e 3b 9c 65 15 be 7b 53 27 3d
       -0.099428296 0.0031434442 -0.14589542 0.040851098
0001d0 a9 2d 8b 3d 0d 09 a0 3d cf 3b db bb fd b8 21 3c
       0.06795818 0.07814226 -0.0066904793 0.009870765
0001e0 fd 39 f5 bd 4a 1c fc 3d a6 99 3a 3e 3d b8 18 3e
       -0.11973951 0.12310083 0.18222675 0.14914031
0001f0 7b bc 25 3d ca f6 5d bd fe 3f 82 3d d7 d6 07 be
       0.040462952 -0.054190435 0.06359862 -0.13265549
000200 68 15 2e 3e 68 06 03 3e 8d c4 2a be 2c 37 77 3f
       0.17000353 0.12795413 -0.1667654 0.9656856
000210 a2 d4 1f bd 97 0f 55 bc 79 05 a1 bd 68 a0 c9 bd
       -0.03902114 -0.013004205 -0.07862372 -0.09845048
000220 bb 81 7b be 9c ae 74 be 15 56 c1 bb 61 c2 1c 3e
       -0.24561207 -0.23894733 -0.0059001544 0.15308525
000230 28 cc 14 3f 4e ff 6d bd 9f 84 d0 3d 8a 15 40 be
       0.5812402 -0.058104806 0.101815455 -0.18758217
000240 38 73 91 3d 7a 05 b7 bc c6 00 5d bc b0 f8 29 3e
       0.07102054 -0.022341479 -0.013488954 0.16598773
000250 38 74 34 3d 92 26 f0 3d 30 1f 8a bc e7 30 02 bc
       0.044056147 0.11726107 -0.016860574 -0.00794623
000260 e5 a3 4f 3d 98 49 26 3e ed 6b 91 3e 8f af 0a be
       0.05069341 0.16239011 0.28402653 -0.13543533
000270 da 20 83 3e 5c 80 f5 3d 16 2a 17 3e db 22 d5 3d
       0.25611 0.11987373 0.14762148 0.10407039
000280 35 b2 10 be 30 9b 0b bc 70 e5 a5 bd 40 59 2d 3e
       -0.1413048 -0.008520886 -0.08100402 0.16928577
000290 2a ad 25 3f 62 1b 41 bb 9b a5 31 3e 0f 18 3b be
       0.6471735 -0.0029465784 0.1734833 -0.18270896
0002a0 4b 7c 4f be 1f f9 da bd b0 a7 bb 3d c0 72 39 be
       -0.20262258 -0.10692047 0.09162843 -0.1811018
0002b0 20 05 c8 bd ad 2d e1 bd 42 06 4a bd f6 c7 e0 3d
       -0.097666025 -0.1099504 -0.049322374 0.109756395
0002c0 4f 1a 5b 3e d3 70 bd 3d 07 8b b5 bc 18 40 8f bd
       0.21396755 0.09250035 -0.02216102 -0.06994647
0002d0 97 85 44 3e 55 3d be bd aa 85 32 3c 19 f3 88 3d
       0.19191585 -0.09289042 0.010896126 0.06686992
0002e0 22 c3 ab bc e5 73 b7 be 1e 1e ed bc dd ee ab 3d
       -0.02096707 -0.35830608 -0.028945025 0.08395169
0002f0 57 0d a5 3d a3 7c a4 bd 85 a6 8b bd 1a 9a c6 3d
       0.08059185 -0.08031585 -0.068188705 0.09697361
000300 73 c5 02 3d 87 45 78 be be 3f 87 3d c7 af c4 bd
       0.031926583 -0.24245273 0.06603955 -0.09603839
000310 b8 bb 37 3d 3b 78 7a 3f 75 e7 3d be e6 63 c4 bd
       0.044856757 0.9783971 -0.18545325 -0.095893666
000320 87 eb 91 be 36 77 7b 3d 21 d2 51 be 57 4d 1e 3c
       -0.28500006 0.061392985 -0.20490314 0.009661994
000330 5c bc 8f 3d fa 5e 2b 3e 57 dd 52 be 8b 8e c0 bd
       0.070183486 0.1673545 -0.20592247 -0.09402188
000340 85 b1 92 3d b9 60 ba bc c4 64 13 bc 76 90 ae 3e
       0.071627654 -0.0227512 -0.008996192 0.3409459
000350 0b ea 82 3c c3 10 b8 3e bd 78 07 3d df 3b eb ba
       0.015980741 0.35950288 0.03307413 -0.001794692
000360 86 c2 7c 3d ec 7d 26 3d 87 d6 f4 3a 17 8c 0a bd
       0.06170895 0.040647432 0.0018679657 -0.033825006
000370 01 67 41 be 10 7e f2 3d 3b c3 08 bd fd 83 16 3d
       -0.18886949 0.11840451 -0.03338931 0.036746968
000380 8e 2c fc bd 30 4b 49 3d 93 42 09 be 98 58 16 3e
       -0.12313186 0.04914397 -0.13404302 0.14682233
000390 a6 e5 89 3d 80 ea 6b bb 6d 48 cc 3e a8 33 7c bd
       0.06733255 -0.0035997927 0.39899006 -0.0615727
0003a0 1c 27 af 3e 97 fd a7 be 37 c1 39 bc e1 97 5c be
       0.34209526 -0.3281066 -0.01133757 -0.21542312
0003b0 20 11 ba 3d d6 2d 8c be dd 74 03 3e bd 6c b0 3d
       0.090852976 -0.2737872 0.12837549 0.0861449
0003c0 46 d1 41 3e 2e 7b 8f 3c 47 a0 64 3d 14 23 85 bd
       0.18927488 0.017514791 0.055816915 -0.06500831
0003d0 26 33 18 3d 7c 23 7a be ac ad 2c 3d 18 84 0f bb
       0.037158154 -0.24427599 0.042157814 -0.0021898802
0003e0 e4 5f a5 bb c8 d9 28 bd 24 4a 5d 3d 7f 9e e1 bd
       -0.0050468314 -0.041223317 0.054025784 -0.11016559
0003f0 1d 59 07 bd 8f af f4 bd f7 c1 1b 3d a3 f5 80 bd
       -0.03304397 -0.11947548 0.038026776 -0.062968515

fc1.bias f4 [128]
000000 29 98 53 be fe a0 11 bd 42 c9 d7 3d 04 ca 23 3e
       -0.20663513 -0.035553925 0.10536434 0.15995032
000010 4a d1 8d 3d a5 19 12 be f7 ee 3b 3e 56 7c 20 3d
       0.06924684 -0.14267595 0.18352877 0.039181076
000020 bb 02 87 3d 83 c2 07 3e 70 ed 84 3d cb 80 ea 3d
       0.06592318 0.13257794 0.064906 0.114503466
000030 9b 80 2a bd 6c 71 7a 3d 7a 40 83 bd 07 b7 36 bd
       -0.041626554 0.061143324 -0.06408782 -0.044608142
000040 b8 35 c5 3d 09 27 cf bd 4f 92 2e be 6c f8 44 bd
       0.09629387 -0.10114867 -0.17048 -0.048088476
000050 ee aa a3 bc a6 53 d8 3d 3e 07 15 be 90 9e ce bc
       -0.019978967 0.1056283 -0.14553544 -0.025222093
000060 5c 66 84 bc 0c f1 66 3c 8d f4 2c bd fa 11 5f 3e
       -0.01616209 0.014095556 -0.04222541 0.21784201
000070 57 4f 60 bd e6 43 89 bd 29 9a 96 bd 1c d8 c2 3c
       -0.054763164 -0.06702404 -0.073536225 0.02378469
000080 cf e9 81 bd 92 5c da 3d 7f 58 0b 3e ad ed 0a bd
       -0.063434236 0.10662188 0.13607977 -0.03391807
000090 b8 09 46 3e 76 b2 fa 3d 40 c2 53 bd 94 bb 8f 3e
       0.19339645 0.1224107 -0.051698923 0.28072798
0000a0 fb 37 45 3e 30 30 77 3d 18 b0 e9 3c 26 f9 11 be
       0.19259636 0.06034869 0.02852635 -0.14255199
0000b0 b5 ae 11 3e b9 e5 e0 bc 37 79 b2 3d af 0a bc bd
       0.14226802 -0.02745329 0.08714526 -0.09181725
0000c0 0f 6c be bd 19 87 2e 3e 98 44 8d 3e 50 86 d5 3d
       -0.09297954 0.17043723 0.27591395 0.10426009
0000d0 9e 70 47 be e7 69 27 3e 75 9e 14 be 69 6b 08 bd
       -0.19476554 0.16348992 -0.14513572 -0.03330556
0000e0 c9 7c 06 3e 7b 85 40 3e eb fc 06 be b0 91 d7 bd
       0.1313354 0.18800919 -0.13182418 -0.105258346
0000f0 5b 6c 4b bc c1 85 3e 3e 6c 8e 88 3d d6 16 cb 3d
       -0.012415971 0.1860571 0.0666779 0.09916465
000100 c0 4e 0a be f7 67 37 3e dd 61 73 bd 3f 52 21 be
       -0.13506603 0.17910753 -0.0594195 -0.1575403
000110 25 08 05 bd a9 43 2c 3e fe 6c 93 3d d8 4b 0e bd
       -0.03247847 0.16822685 0.07198523 -0.0347403
000120 a4 bb f4 3d aa 32 32 bc 5e b8 b5 bb 68 7d 6f 3e
       0.11949852 -0.010876337 -0.00554566 0.23387682
000130 3a 31 5b be c0 88 f6 3d 60 98 4a be 3d a8 01 3e
       -0.21405497 0.12037802 -0.19784689 0.12661834
000140 c3 98 d9 ba d9 4a 65 3d 99 6c 8c bd aa ba 4a 3d
       -0.0016601313 0.055979583 -0.06856651 0.049494423
000150 04 0e e0 3d 08 da 86 3b a8 31 9c 3c 7e 5a 10 bb
       0.10940173 0.004115347 0.019066647 -0.0022026594
000160 92 d2 42 be 46 37 0c be e5 61 86 3d 72 a3 5f be
       -0.19025639 -0.1369296 0.06561641 -0.21839693
000170 e4 ec 86 bd 6d 6a d7 bd 73 28 b1 bd 54 c8 6d 3c
       -0.06588152 -0.10518346 -0.08650293 0.014513094
000180 de ba e0 bc 60 a0 fa 3b 82 47 a2 3d 66 3b 88 3e
       -0.027432855 0.0076485127 0.07923795 0.26607817
000190 97 cc fd bc a4 d8 93 bc ba 2e 31 3b 88 8b e3 3d
       -0.030981345 -0.018047638 0.0027035908 0.11110598
0001a0 85 5b fd bb 44 b9 2c 3c d6 c9 47 be a6 d5 47 be
       -0.0077318572 0.010542218 -0.19510588 -0.19515094
0001b0 99 3f 03 be 2c 3e e8 bd 46 78 12 be a1 de c1 3d
       -0.1281723 -0.11339983 -0.14303693 0.09466291
0001c0 af 56 c5 3d ee f2 0e 3e 3c ba 4c 3c 11 0f 43 be
       0.09635674 0.13959858 0.012495574 -0.19048716
0001d0 d8 4a 81 bd 30 f3 00 be 7f 1a 50 3e c2 5e c9 be
       -0.063131034 -0.12592769 0.20322607 -0.39330107
0001e0 3f f6 58 3d 1e 4a fa 3d 17 ce 6a 3d 69 3c 2a bd
       0.052969214 0.12221168 0.05732545 -0.041561518
0001f0 48 67 ef 3c 3d a3 32 3d cc c0 62 be f3 14 2a 3d
       0.029224053 0.043612707 -0.22143859 0.041523885

fc2.weight f4 [256, 128]
000000 25 66 70 3d 26 45 20 be 3b e6 40 bd 67 28 fa bd
       0.058691163 -0.15651378 -0.047094565 -0.122147374
000010 59 4a 80 3d a3 0b 31 3e 01 49 71 bd 15 85 04 3e
       0.06264181 0.17289595 -0.058907513 0.12941392
000020 55 5c 32 bc f7 06 90 bc 8d 36 49 3d c1 e8 84 bd
       -0.0108862715 -0.017581446 0.04912429 -0.06489707
000030 6b 12 89 3d 8c 99 ff bd 58 7e 00 bd a5 91 2d be
       0.06692966 -0.124804586 -0.03137049 -0.1695009
000040 5c 7d 41 be d2 86 bc 3c aa fd ef bd 94 a4 e6 3c
       -0.18895477 0.023013506 -0.117183045 0.028154649
000050 4e 50 6a 3c 9e d3 98 3c 28 e5 92 bd bc 52 1d 3d
       0.014301373 0.018655594 -0.07172614 0.03840898
000060 df ca 1b 3e ae 6c cc bd 5c 54 51 3d df 52 9d bd
       0.15214108 -0.099816665 0.051105842 -0.07681822
000070 26 af cf bd 2b c3 d0 bd e0 69 c6 3d be 7a d3 bd
       -0.10140829 -0.10193475 0.09688163 -0.103261456
000080 e8 05 8c bd 01 43 5b bc 20 e0 a1 bd 0e 1a 17 ba
       -0.06837064 -0.013382674 -0.079040766 -0.00057640753
000090 a3 bb 39 3e 99 8a 48 3e 77 fb 15 3d 79 36 8f bd
       0.18137984 0.19584121 0.03661677 -0.06992812
0000a0 41 fc 48 3c e1 69 85 bc 1f e2 b8 bc ef fc c1 bd
       0.012267173 -0.016285839 -0.02256876 -0.094720714
0000b0 4e c8 32 3b d6 10 0d be e0 be 03 3e 04 08 92 3d
       0.0027280035 -0.13775954 0.12865782 0.07130435
0000c0 a2 c7 36 be cc e3 24 be 8a cf e1 3c 54 b3 91 bd
       -0.17849591 -0.16102523 0.027564783 -0.07114282
0000d0 08 f9 87 3e 75 06 60 3d 8f c2 7d be 23 e8 32 3d
       0.26557183 0.054693658 -0.2478125 0.043678414
0000e0 d9 7d c5 bd 21 c7 11 be 39 77 cb be 23 fc 0f be
       -0.09643144 -0.14236118 -0.39739397 -0.14061026
0000f0 a2 d2 92 bd 60 9f 8d bc f1 08 aa bd a7 62 db bd
       -0.07169081 -0.01728791 -0.08302487 -0.10712176
000100 3e 0a 28 3e ff 24 92 bd 45 99 52 bd 2c 8c 3a 3e
       0.16410157 -0.07135963 -0.0514157 0.18217534
000110 6d 67 87 bd 3c 19 a1 3d 28 e1 51 be 86 92 b1 bc
       -0.06611524 0.07866141 -0.20496047 -0.021676313
000120 d2 c7 89 3d 1c 45 fd bd 55 d8 50 bb 7c 64 1c 3d
       0.06727566 -0.12366697 -0.0031867225 0.038181767
000130 d2 37 0a 3e 3f c0 63 3e 06 65 59 3c 27 3b 8a 3d
       0.13497856 0.22241305 0.013268715 0.06749564
000140 a2 be 8c 3d 9b 73 bf 3c 28 ab 46 bc 74 d9 a5 3d
       0.06872298 0.023370555 -0.012125768 0.080981165
000150 06 35 a1 3d e0 9a 01 be 12 ea 76 3d 6f f1 12 3e
       0.078714415 -0.12656736 0.06028182 0.14349912
000160 ad 9d f7 bc af e8 e5 3b 96 db 19 3e 0e 13 87 bd
       -0.030226553 0.0070162634 0.15025172 -0.06595431
000170 0a 5e e5 3b 8a 19 18 bd 3c 5a df bd ea c3 fb bd
       0.0069997357 -0.03713373 -0.10905883 -0.12293227
000180 b0 fc 2e be 12 23 84 bd 22 f0 5a bd 46 39 59 3d
       -0.1708858 -0.06452002 -0.053451665 0.053033136
000190 4a 7a 9f bc 43 c6 f7 3b 5b a0 23 3e f9 b7 52 3d
       -0.019467492 0.0075614764 0.1597914 0.05144498
0001a0 72 89 d8 3d 57 df 13 bd 76 6e 2a 3e 51 4e 1c 3d
       0.105730906 -0.036101665 0.166437 0.038160626
0001b0 c1 a5 74 3d 0a 79 fe 3d 8e e4 f4 bc bb 09 07 3e
       0.059728388 0.1242543 -0.02989414 0.13187306
0001c0 8c 6c 1a bc 1b 5b e7 ba d0 b3 d5 3d 2b 33 57 bc
       -0.009425294 -0.0017651053 0.10434687 -0.013134758
0001d0 a1 bb a1 3b 6a 21 38 3d f3 d2 44 3d 03 38 ce 3e
       0.004935697 0.04495374 0.04805274 0.4027711
0001e0 cc 04 6f bd 65 d4 27 3e a7 45 59 be 33 c7 4a bd
       -0.058354184 0.16389616 -0.21217977 -0.049506377
0001f0 b6 6c 56 3e a9 ac 90 bd 77 df 05 3e 0c eb b2 3d
       0.20939907 -0.07064182 0.13073526 0.08736238
000200 78 97 97 bd c1 b6 33 3d be 34 6e 3d 82 76 9a bd
       -0.07401937 0.04387546 0.058155768 -0.07542135
000210 4f 22 8c bd 86 2c 24 bd 1a b1 85 3d 38 e3 cd bd
       -0.06842481 -0.040081523 0.0652792 -0.10053104
000220 b3 7b 9d 3c 7a f2 40 bd fe f7 1c 3d 4a 55 97 3d
       0.019224023 -0.047106244 0.03832244 0.073893145
000230 14 24 a0 bd 58 cd 11 3c 7b 9c c0 3d db fc 2d 3d
       -0.07819381 0.008899055 0.09404846 0.04247747
000240 cf 39 b7 3d d2 82 bf be 97 3d 79 3d 3c 82 fa 3c
       0.08946573 -0.37404495 0.060849752 0.030579679
000250 76 c7 03 be 88 fa 3d 3d 9d 50 e4 bd 29 6b 59 3d
       -0.12869057 0.046381503 -0.11148188 0.05308071
000260 2a e4 26 3c ad 69 63 3d c7 86 6e 3d 27 9e 26 3e
       0.0101862345 0.055520702 0.058234002 0.16271268
000270 f1 88 1b bd 73 98 8c bd 02 91 f0 3b 1a a9 44 3c
       -0.037972394 -0.06865015 0.007341505 0.012003208
000280 4a 6b 79 be 15 8a ed 3b 24 c2 54 3d 8c 7b 9e 3d
       -0.24357334 0.0072491267 0.05194296 0.077384084
000290 42 25 2a bf 31 b5 51 be c3 41 30 bd 5f 6d a1 3d
       -0.664631 -0.20479275 -0.043031465 0.07882189
0002a0 82 70 2b bd c1 86 8e 3d eb dc 29 3d 7b 49 21 bb
       -0.041855343 0.06959296 0.04147045 -0.0024610448
0002b0 68 06 37 be 19 e2 51 3c 35 fd 1a 3d 6a 2e 0a bd
       -0.17873538 0.012810254 0.037839133 -0.03373567
0002c0 f0 e7 c6 3d 90 0a cd bd 40 6d f8 3d ed a4 03 be
       0.09712207 -0.1001178 0.12130213 -0.12855883
0002d0 4d 94 f3 3c 36 e4 c0 bc 3b 48 71 bd 02 a4 83 3d
       0.029733801 -0.02354632 -0.058906775 0.064277664
0002e0 83 2a 02 3e 07 2f 68 be 07 09 40 be 5d 2b 4f 3d
       0.1271153 -0.2267419 -0.18753444 0.050578464
0002f0 f8 ba f8 3b bc 2c 0e 3e cf 21 e6 bc 26 09 12 3d
       0.007590648 0.13884252 -0.028092293 0.035653256
000300 9d 95 2f 3d 01 84 01 3d e9 06 84 3d ae 18 3a bd
       0.04286729 0.03162003 0.064466305 -0.045433693
000310 ea ea d4 bc 27 31 94 3d 1c fb d9 bd 77 92 63 bc
       -0.025990922 0.072359376 -0.106435984 -0.0138899
000320 75 c0 68 3d 44 57 17 bd 09 e1 90 bd fd 50 ca bd
       0.056824166 -0.036948457 -0.07074172 -0.098787285
000330 c6 f7 a9 bb ee f7 cb bc 3c 49 dc bd 28 af 26 3e
       -0.0051870076 -0.024898496 -0.10756156 0.16277754
000340 fd e3 93 be f5 9f da bc 50 3b a4 bd 1f 88 6e 3d
       -0.2888488 -0.026687602 -0.080191255 0.058235284
000350 8c c5 0f 3a 73 4d be 3d ab 46 e1 3a d8 e5 d0 3d
       0.0005484454 0.09292116 0.0017187198 0.10200089
000360 d4 64 db bd 47 3b 61 3d 32 a5 74 3e 43 68 5b bc
       -0.10712591 0.054988172 0.23891142 -0.013391557
000370 26 c6 b6 3d c6 9b c9 bd 02 29 f2 bd c2 fb 2a be
       0.089245126 -0.098441646 -0.11824228 -0.166976
000380 c3 da 8f bc e8 0d 40 3d a0 ec bf bd 7d ac 52 3d
       -0.017560368 0.046888262 -0.093713045 0.05143403
000390 8f a5 50 bc 2c 74 4a be 5e ac 3e be 18 08 aa 3d
       -0.012734785 -0.19770879 -0.1862044 0.08302325
0003a0 71 63 91 be 99 59 6c 3d 1d 79 0b 3e 83 37 72 bd
       -0.2839618 0.057702634 0.1362042 -0.05913497
0003b0 e4 32 02 3e 51 99 52 be cf d0 55 bd 72 c3 1f bd
       0.12714726 -0.20566298 -0.05220109 -0.03900475
0003c0 d5 55 dd 3d fe 82 08 3d 98 4a 4f be 31 23 67 3e
       0.10807387 0.03332805 -0.20243299 0.22572018
0003d0 54 b2 a9 bd 3f 84 fa bb 39 81 1a 3e 12 b0 88 be
       -0.082859665 -0.0076451595 0.15088357 -0.2669683
0003e0 2f eb aa 3d bd 28 82 3d c0 0c 5b be 42 46 e6 bd
       0.08345639 0.063554265 -0.21391582 -0.11243869
0003f0 0c fc 93 3e 98 1f e8 3d 78 55 26 3d e2 56 12 3e
       0.28903234 0.11334151 0.040608853 0.14290956

fc2.bias f4 [256]
000000 db 60 e8 bc 0a fb 63 bc 48 26 a4 3d 33 51 6b 3c
       -0.028366497 -0.013914833 0.08015114 0.014362621
000010 84 85 72 be 0f 98 13 bb f4 28 ba 3d a5 d6 4d 3a
       -0.23683745 -0.0022521054 0.090898424 0.0007852114
000020 d0 af 6a 3d da db 86 3d 83 56 db 3c b9 c3 87 bd
       0.057296574 0.06584902 0.02677465 -0.06629128
000030 60 11 98 3c fb e3 9d bc 55 d0 34 3d a8 4d 9d bd
       0.018562973 -0.019273749 0.044143993 -0.076808274
000040 46 76 9f bd ef eb 7b 3c b5 03 89 bd 6f 8b ed 3c
       -0.07786231 0.015376075 -0.0669016 0.028997151
000050 eb 55 55 bd 86 e5 88 bd 2a 87 84 bd 56 8f 05 bc
       -0.05208389 -0.06684403 -0.06471093 -0.00815185
000060 95 0a 93 3d 74 a3 bb bd 26 f3 ad bc 7e 32 1f bd
       0.07179753 -0.091620356 -0.021234106 -0.038866512
000070 0c 51 d2 3d bb 3b bc bb 04 da 2d 3d a6 53 dd bb
       0.10269365 -0.005744425 0.042444244 -0.0067543564
000080 3f fc 42 bd 8e 8f 8b 3d 61 32 21 3d cc f1 8e bd
       -0.047603842 0.0681449 0.039354686 -0.06979713
000090 b5 f2 6f 3d 65 ed 84 3d 78 78 18 be bd c6 a9 3c
       0.058581073 0.06490592 -0.14889705 0.020724649
0000a0 d3 49 91 3d 52 87 f0 bc 6d e6 23 bd 1d 92 53 3d
       0.07094159 -0.0293614 -0.040014673 0.051653016
0000b0 f4 66 ab bd 91 f5 10 bc e6 e6 4e bc ed 32 a1 bc
       -0.08369246 -0.00884761 -0.012628293 -0.019677604
0000c0 a7 b1 48 bd c3 d7 9c bd 95 3a be 3c 16 2f 27 3c
       -0.048997547 -0.07658341 0.023221293 0.010204097
0000d0 33 fb 8d bc 01 b4 37 bd 42 72 92 3d e2 af 8c bd
       -0.017331695 -0.0448494 0.07150699 -0.068694845
0000e0 43 84 c7 3d 4b d7 91 3c 88 5c cc bd 0a 6f 03 3e
       0.09742024 0.017802855 -0.099785864 0.12835327
0000f0 bd 6d b3 bd 17 ac 10 3d 58 97 ce 3a 16 93 48 bd
       -0.08761165 0.035320368 0.0015761657 -0.048968397
000100 5d 52 79 3d d3 a3 7e bc 54 9f 3a bd 3d ce 99 bc
       0.060869563 -0.015541988 -0.045562103 -0.0187751
000110 22 2a 07 be 7e 00 10 be fa ef 6c 3d 57 77 b7 3c
       -0.13199666 -0.14062688 0.057846047 0.022395773
000120 17 85 1a bd 5d 3c 6c bd b5 6a 50 bd ab 8c 87 bd
       -0.03772458 -0.057674754 -0.050883014 -0.06618627
000130 a2 b3 54 3d 1b 1e 5b 3c 87 c0 02 3e 92 7f a4 3c
       0.051929124 0.013373877 0.12768756 0.020080362
000140 62 56 ee bd 6a c5 1e 3d 7d 1c 81 bd 0e 3e ae bd
       -0.1163757 0.038762487 -0.06304262 -0.0850793
000150 e0 f5 9c bc f1 83 44 bd ed 8a 09 bd 58 2a 1f 3d
       -0.019160211 -0.04797739 -0.033579756 0.03885874
000160 7a 67 4e bd e5 98 8e b8 46 6a f3 bc e1 72 7c bd
       -0.05039165 -6.7995665e-05 -0.029713761 -0.061632995
000170 2c 4e 89 bd f0 b2 b6 bd c2 00 6c bd bf 01 25 3d
       -0.06704363 -0.08920848 -0.05761791 0.04028487
000180 80 c7 75 bd 52 97 88 3d 9a f2 e8 bb 7d 41 e9 3c
       -0.06000471 0.06669487 -0.0071089985 0.02847361
000190 e0 a7 6a bd 11 b7 92 bc fe 80 3f bd d8 8f 85 3d
       -0.057289004 -0.017909558 -0.046753876 0.06521577
0001a0 f2 62 a2 3c 30 f6 3b bd 3f 13 d7 bd d3 df a1 bd
       0.019822571 -0.04588908 -0.10501718 -0.07904019
0001b0 ea 22 46 bd 2e 35 6d bd 9f 22 4f bd be 61 52 3b
       -0.04837314 -0.057912044 -0.050570127 0.0032101716
0001c0 ac ae 19 3d dc 67 6a 3c 46 bf de bc 6b 16 61 3b
       0.037520096 0.014306989 -0.027190816 0.0034345638
0001d0 df 2a 0a bd 7f fc 2d ba 7e 76 1d bd 44 28 98 bc
       -0.03373229 -0.0006637051 -0.03844308 -0.018573888
0001e0 33 52 94 bd e3 a5 8c bd 9a b1 d2 3d e2 32 d1 bd
       -0.07242241 -0.06867578 0.10287781 -0.10214783
0001f0 07 95 a0 bb 9a d7 7c 3d 6b bf fa bd 43 93 e2 bd
       -0.004900578 0.06172905 -0.12243541 -0.11063244
000200 0f 7e 0d bc a9 ef a0 bd 23 d3 83 bd 63 79 67 3d
       -0.008636012 -0.078582115 -0.064367555 0.056512248
000210 92 71 92 3d 8f e3 a9 bd 97 10 b3 b9 c9 4c f8 3c
       0.07150568 -0.082953565 -0.000341539 0.030310052
000220 31 21 92 bc b7 fe c4 bd 25 2a 71 bc 10 c2 e0 bd
       -0.017838093 -0.096188955 -0.014719521 -0.109745145
000230 dd c4 9a 3c ff a7 d3 3c ce d5 7e 3d ec 2f e9 bd
       0.0188927 0.025836943 0.06221562 -0.113860935
000240 09 04 a5 bc 5f ea 7b 3c aa cf dc bd 8f b9 2f 3d
       -0.020143526 0.015375703 -0.10781796 0.04290157
000250 ee 95 34 bd 4e 5b 8d bd ac 38 38 3d 1f 34 aa bd
       -0.044088297 -0.069021806 0.04497592 -0.083107226
000260 57 5d c8 bd 2e 6a 8e bd ba 14 08 bd f1 b2 e4 bd
       -0.09783428 -0.06953846 -0.03322289 -0.11166943
000270 9f f7 2e 3d 3c d7 2c bd 23 d7 b0 bd 11 f2 34 bd
       0.04271662 -0.04219745 -0.08634784 -0.044176165
000280 5c b9 da bc 7d 4b 03 bd 07 fd e5 3d 31 6f ba bc
       -0.026699714 -0.032054413 0.11229902 -0.022758098
000290 fc b6 8c 3d 68 8c 16 bd 8e d1 9b 3d e6 aa e5 3d
       0.06870839 -0.036754996 0.07608329 0.11214237
0002a0 fb 06 42 3d 2d 55 ac 3a 3e 0a 7e bd a3 ef 8f bd
       0.04736994 0.0013147943 -0.062021486 -0.07028129
0002b0 21 41 ac 3c 3d c1 b2 3d 45 c7 a6 bb 58 c6 28 3d
       0.02102715 0.087282635 -0.0050896727 0.04120478
0002c0 f0 49 b9 bd a4 cd de bd a4 fc 9c 3d be 93 cb 3c
       -0.090473056 -0.108790666 0.07665375 0.024850722
0002d0 99 0c 34 3c ae 3a a6 3c 4f 81 12 3c b6 d8 9d 3d
       0.010989332 0.020291653 0.008941962 0.0770735
0002e0 3f 61 f2 3c 74 1c c3 3b bd 66 89 bd 81 7e a3 bb
       0.029587386 0.0059543196 -0.06709049 -0.0049894457
0002f0 ff 63 77 bd 31 3f c0 3c 81 7e d5 3c be ba 0b 3d
       -0.060398098 0.023467632 0.026061298 0.034113638
000300 70 a0 56 bd 72 a4 83 3d 11 de 8a bd be e3 3a 3d
       -0.0523991 0.0642785 -0.06780637 0.045627348
000310 35 e4 c2 3d 11 f8 99 bd af 71 7f 39 32 16 33 3d
       0.09516183 -0.07518018 0.00024361046 0.04372234
000320 49 43 77 bd ea 2a d1 3d bf e2 d8 3c cd 58 8e bc
       -0.060366903 0.10213263 0.026475308 -0.017376328
000330 50 7f d4 ba 76 74 47 bd cc 6d f6 3c 29 62 9a 3c
       -0.0016212258 -0.04869505 0.030081652 0.018845635
000340 ef 12 79 3d 20 18 c7 3d c3 7c d2 bc 7b 5e 00 bd
       0.060809072 0.09721398 -0.025694257 -0.031340104
000350 42 e7 1c 3d 5c 42 0b 3d 57 48 7f 3d 2e 17 50 be
       0.038306482 0.033998832 0.062324848 -0.20321342
000360 62 43 ba bd 72 b2 85 3c 66 a5 11 be 45 e1 4b 3c
       -0.090948835 0.01632044 -0.14223251 0.012443845
000370 3e a6 42 3d 5f 0e 5f bd 45 53 d6 bc 3d 86 81 bd
       0.047521822 -0.054457065 -0.026162753 -0.06324432
000380 bb a4 6b 3c 16 31 d3 bc a0 50 89 3c fb be e4 3b
       0.0143825365 -0.025780242 0.016762078 0.0069807745
000390 ef c1 a4 bd 29 49 04 bd 4c 1e c9 3c e1 a9 2e bd
       -0.080448024 -0.032296333 0.02455058 -0.042642478
0003a0 80 ec 96 bd b9 ac 81 bd 35 89 80 bd 67 26 fc bc
       -0.073693275 -0.06331772 -0.0627617 -0.03078003
0003b0 b7 1e c7 bc 35 2f e5 bd 73 cb 14 bd 51 e7 18 bc
       -0.024306638 -0.11190645 -0.036326837 -0.009332494
0003c0 59 4e 7f bd 0c a1 82 be 71 15 f6 3c 3e c3 e9 bc
       -0.062330578 -0.25513494 0.030039521 -0.028535482
0003d0 e4 57 9c bd e2 e5 ae 3d 7d 9f c0 bd 72 01 e2 3c
       -0.07633951 0.085399404 -0.0940542 0.02758858
0003e0 ec ab 05 3d 7f d5 99 bd aa e3 79 bd 64 da 16 3d
       0.03263466 -0.07511424 -0.061008133 0.036829367
0003f0 99 9b 01 3d 50 e6 da 3d 4a f4 d6 bd c1 be 72 3c
       0.03164253 0.1068846 -0.10495813 0.014815987

fc3.weight f4 [4, 256]
000000 ae b5 ea 3c 59 0e 9d 3e 19 2c 6b 3e 6e 24 25 3e
       0.028651085 0.3067501 0.2296604 0.16127178
000010 d4 7a 9d 3d 4d 0a 48 be d2 b3 54 bd 3f 99 2f 3d
       0.07689443 -0.1953518 -0.051929303 0.042870756
000020 fa 29 d5 bd ec 87 b4 3e bf 2c 87 3e ae 0a 9d be
       -0.10408397 0.3525995 0.26401326 -0.3067221
000030 d7 6d 19 be 56 47 32 3c 4a ea 88 3e 32 aa 32 3e
       -0.14983307 0.010881266 0.26741248 0.17447737
000040 52 6a 6f bc 3f 29 35 3d cf 0c 02 3e 1f 90 e7 bd
       -0.014612751 0.04422879 0.12700199 -0.11306786
000050 f8 10 1e 3b 9a eb 4c 3c 55 a2 18 be e4 2a 62 3e
       0.0024119 0.012507344 -0.14905675 0.22086674
000060 2b 89 2f bc 11 c5 ca 3c a3 bf 7e 3e 0c 98 10 3e
       -0.010713856 0.024752172 0.24877791 0.14120501
000070 15 cb d4 3c 9f 16 bc 3c 8c 58 ba 3e 70 e2 09 3f
       0.025975743 0.022960005 0.3639568 0.5386114
000080 40 ed ee 3d 6c 68 91 be 23 e4 8b be 57 ab f6 bd
       0.116663456 -0.2839998 -0.27322492 -0.12044399
000090 61 05 86 bd 87 84 60 3d bf 75 53 bf 30 04 d2 bb
       -0.06543995 0.054813888 -0.8260154 -0.0064091906
0000a0 49 ad 34 3e 9e d8 ea bd d6 8d 8a be e9 37 c2 bd
       0.17644228 -0.11467098 -0.27061337 -0.0948332
0000b0 bd 39 ad 3e 24 87 84 3e 49 86 c9 3e 4f 4c ef 3c
       0.33833113 0.25884354 0.39360264 0.029211191
0000c0 cd 13 0f be 90 5e 22 bb 24 de 13 3f 32 80 56 be
       -0.13972397 -0.0024775602 0.57760835 -0.2094734
0000d0 42 76 0a be 56 7c 29 be 3b f8 38 3e a6 f0 7b 3e
       -0.13521674 -0.16551337 0.18063442 0.24603519
0000e0 9e cd 11 3e d7 ef 45 3c 89 f7 72 bd d8 65 4e 3e
       0.14238593 0.012081108 -0.0593181 0.20156038
0000f0 17 8c eb 3c ba fa 0e 3d 3f 56 ab 3c b2 2e be 3e
       0.028753323 0.03490708 0.020915149 0.37145
000100 ec e0 4b bd 24 fc a0 3d 04 c4 7f 3e 7c 5a a9 be
       -0.04977505 0.07860592 0.24977118 -0.33076847
000110 cb 61 99 3e bf 16 5a be da 77 1c bd 23 65 0a bf
       0.29957423 -0.2129774 -0.038200237 -0.5406057
000120 ea d6 0b bf 88 1f 33 3e 2b 3d ff be ce cf a2 3d
       -0.5462481 0.17492497 -0.49851355 0.07949792
000130 48 0c 96 3c 95 30 78 3a 30 23 20 3e 69 16 22 be
       0.018316403 0.00094676885 0.15638423 -0.15828861
000140 28 95 05 be c9 cc 61 3d 92 c2 75 3e 89 76 ba bd
       -0.1304518 0.05512694 0.24000004 -0.0910464
000150 3a a7 99 be f7 b7 64 be 92 93 0a be 3e 69 a5 3d
       -0.30010396 -0.22335802 -0.13532856 0.08076714
000160 60 6d b0 bd 1d 8f c2 bd 0e 4f e7 3e 8c 51 a7 be
       -0.086146116 -0.09499953 0.451775 -0.32679403
000170 e8 c2 ae 3d 0d de e4 be 19 5a 45 3f b7 2b 46 3e
       0.08533269 -0.4470066 0.77090603 0.19352613
000180 1f fd a4 be 34 95 89 bd 97 21 29 be 75 37 1c 3e
       -0.32224366 -0.06717911 -0.1651672 0.1525553
000190 8f 4c 33 3d f7 c3 93 3e 33 43 74 bc 2a c7 bd be
       0.043774184 0.28860447 -0.0149086 -0.37066013
0001a0 96 f5 49 bd 53 4d 11 bf 3a 01 99 bc 86 0e 94 be
       -0.049306475 -0.5675861 -0.018677343 -0.2891733
0001b0 ed 02 60 bd 81 2e 4a 3d 50 0f 0a 3e a9 dd 11 3e
       -0.05469029 0.049360756 0.13482404 0.14244713
0001c0 d9 63 ca bd db 2a 01 3f 55 c3 50 be cb 42 1c 3e
       -0.09882326 0.5045602 -0.20387013 0.15259854
0001d0 fc 4e 7b be b3 3e 26 bf 1e b1 02 bf 73 f4 a2 3c
       -0.24541849 -0.6493942 -0.5105151 0.019891953
0001e0 b6 56 98 bd 28 43 37 bf c2 5a 0d bb d3 03 ed 3e
       -0.07438414 -0.7158685 -0.0021568988 0.4629198
0001f0 22 3c 85 be 62 bf ea be e2 7a b2 3e d7 5e 71 be
       -0.2602244 -0.45849138 0.34859377 -0.23571335
000200 65 0b 0e be 15 56 01 3e c5 13 02 3f ea 6e 5d 3e
       -0.13871534 0.12630494 0.50811416 0.21624342
000210 bf 21 bf 3d 78 f8 35 bf 26 25 f5 3d da 8b 95 3e
       0.093326084 -0.7108226 0.11969976 0.2920826
000220 fa a5 22 bc 59 8b 2e 3f 43 9c b9 3d f2 cb 75 be
       -0.009927267 0.6818138 0.09063008 -0.2400358
000230 ec f6 03 bf 5f 65 6f 3d 89 46 60 bd 2d c3 47 3e
       -0.5154865 0.058446284 -0.054754768 0.19508047
000240 87 1c 97 bc 20 d4 5c 3e fc 8e fc 3d 6c b7 08 3e
       -0.01844622 0.21565294 0.123319596 0.1335122
000250 48 e5 93 3e 2f 85 d2 bc 14 30 01 bd ae ec 36 3d
       0.28885865 -0.025698273 -0.03153999 0.04465931
000260 f4 eb f2 3e 71 68 9b 3d 5c c0 e2 be 69 61 92 be
       0.47445643 0.0758828 -0.44287384 -0.28589943
000270 65 df 87 3e b7 54 46 3e c0 6c b3 3d dd 52 01 bf
       0.26537624 0.19368254 0.08760977 -0.50517064
000280 7f 1b f1 bd 83 f5 dc bd 4e 9f 81 bd ae dd 81 3e
       -0.117728226 -0.10789015 -0.06329213 0.2536444
000290 b2 cc 25 3e f4 16 2b bd 93 c2 cd 3d 68 7c de bc
       0.16191366 -0.041769937 0.10046878 -0.02715893
0002a0 c4 30 9a 3d 8b 6a f8 bc 59 09 9c 3d c0 59 49 be
       0.075288326 -0.030324241 0.076189704 -0.19663143
0002b0 38 fc a5 3e c5 b7 d3 3c ad 9a 8f bd eb dc e1 39
       0.3241899 0.025844464 -0.07011924 0.0004307994
0002c0 79 7c 20 bf 64 12 55 3e 8a d9 ed bd 33 90 e0 3c
       -0.6268993 0.20807797 -0.11613758 0.02741251
0002d0 84 a8 68 be 65 57 02 3e 2b d6 e6 3e 4b 74 0b 3e
       -0.22720534 0.12728651 0.45085272 0.13618581
0002e0 57 1e 74 bc c3 95 d2 3e 4a 62 26 3d e2 6d ea be
       -0.014899812 0.41129884 0.04062108 -0.4578696
0002f0 58 cb d3 be 82 37 0a 3f 8f a2 30 be 71 c9 80 be
       -0.41366076 0.5399095 -0.17249511 -0.25153688
000300 e4 21 86 be 9d cc 59 3c 12 b1 f2 bd bc 21 1b 3e
       -0.26197731 0.0132934125 -0.1185018 0.15149587
000310 f8 40 06 be 93 9a bd 3d 76 dc 3b 3f 89 00 80 bc
       -0.13110721 0.09257998 0.7338327 -0.015625255
000320 93 a1 9e 3e 2c a9 a8 3e a8 29 4e 3e 9c df 9b be
       0.30982646 0.32941568 0.20133078 -0.30444038
000330 7f e9 0a bf 66 ed 13 be d3 7a 03 bf cd f5 de 3d
       -0.54262537 -0.14446029 -0.5135929 0.108867265
000340 44 a8 f7 3c b2 42 e2 bd e2 57 82 be 3e c9 17 bc
       0.030231602 -0.11047877 -0.25457674 -0.0092642885
000350 b8 1a 06 bc 81 3f 4a be 8a b4 64 3c eb 53 f4 bd
       -0.008185081 -0.19750787 0.0139590595 -0.119300686
000360 e3 68 d3 3d c8 15 b2 3d 86 7e ec 3e 54 6e 90 be
       0.1032274 0.08695561 0.4619028 -0.28209174
000370 34 2b a8 3c b1 59 4b be 8e ba bc be d8 46 74 be
       0.020528413 -0.19858433 -0.3686108 -0.2385515
000380 90 ed 54 bd 71 87 dd 3b be e9 92 3e e5 12 79 3e
       -0.05198437 0.0067605306 0.28693956 0.24323614
000390 f6 f7 b1 3b 75 d3 a6 3e e9 c1 6e 3e b6 ad 02 bd
       0.0054311706 0.32583204 0.23316158 -0.031903945
0003a0 33 c2 10 be 51 e1 79 3d 91 69 a3 3c 62 fb 00 bd
       -0.14136581 0.061005894 0.019947799 -0.031489737
0003b0 ac ff a9 3a aa 56 f3 3e 45 0a c0 3d 3d 97 27 bd
       0.0012969873 0.47527057 0.09376959 -0.040915716
0003c0 c2 b7 7f 3d 74 85 9a 3e 56 4f 3b 3e cb da 30 3e
       0.062431104 0.30179942 0.18291983 0.17270963
0003d0 78 45 76 bd 4c 57 99 bb 76 17 bc bd e9 85 3c be
       -0.060124844 -0.004679596 -0.09184162 -0.18410458
0003e0 88 90 95 3d 48 d0 b5 bd 73 73 cb 3e 13 6d 71 be
       0.07302958 -0.08877617 0.39736518 -0.23576765
0003f0 c8 d5 db bd be f4 bf bd d6 2b b7 3c f1 c7 d6 3c
       -0.10734135 -0.09372853 0.02235977 0.026218386

fc3.bias f4 [4]
000000 71 e0 d0 3c 92 fb 6d 3d ec 7f 36 ba 4d 6f f9 3c
       0.025497647 0.058101244 -0.0006961811 0.03044858
